checkpoint_actor2.pth (torch_old, 83510 bytes, 18 tensors)

bn1.weight f4 [24]
0	0x3f190891	0.59778696
1	0x3e66a1b5	0.22522624
2	0x3ebbd9fa	0.3668974
3	0x3f027e7c	0.5097425
4	0x3e3cd3fc	0.1844024
5	0x3f280752	0.6563617
6	0x3ed8c61b	0.42338642
7	0x3f16b364	0.5886748
8	0x3f052070	0.5200262
9	0x3ef79a5e	0.4835996
10	0x3f1ad011	0.60473734
11	0x3ec431d0	0.38319254
12	0x3f3dde79	0.7416759
13	0x3ea5e264	0.32399285
14	0x3f0dde50	0.55417347
15	0x3ea4b03f	0.32165715
16	0x3efd86bc	0.49516857
17	0x3ecd625f	0.40114114
18	0x3f6665c8	0.89999056
19	0x3f0a5689	0.5403829
20	0x3f177703	0.5916597
21	0x3eeb52bc	0.4596156
22	0x3ed0e0c0	0.4079647
23	0x3e86be28	0.26316953

bn1.bias f4 [24]
0	0xb8f0ed57	-0.000114883
1	0xb9d6f1fb	-0.0004099755
2	0xba5d39d6	-0.0008439099
3	0xba57a5c7	-0.0008226302
4	0x39ba8a4a	0.00035579718
5	0xba20abce	-0.00061291165
6	0xba6377ea	-0.00086772314
7	0xba306c4d	-0.0006730005
8	0x3a7325a0	0.0009275321
9	0xbaa4e13b	-0.0012579331
10	0x3a0bd1e7	0.0005333707
11	0xbb10e248	-0.002210753
12	0xba95b753	-0.0011422433
13	0xb990aa71	-0.0002759281
14	0x3aec4a3b	0.0018027493
15	0x39185c1d	0.00014530164
16	0xb86d25e0	-5.6540477e-05
17	0xba0b6f5f	-0.0005319025
18	0xba4b26d1	-0.00077496195
19	0xbaa41e9e	-0.0012521332
20	0xbb277610	-0.0025552548
21	0x3ac9da80	0.0015400201
22	0xbb04984d	-0.002023238
23	0x3aadaa7f	0.0013249664

bn1.running_mean f4 [24]
0	0xc0ed45f7	-7.4147906
1	0xbf170afc	-0.59001136
2	0x3fa79e6f	1.3095225
3	0xbda5659b	-0.0807602
4	0x3bf9f84f	0.0076284776
5	0x4026c291	2.6056254
6	0x3fa79e6f	1.3095225
7	0xbda5659b	-0.0807602
8	0xc0f321a3	-7.597856
9	0xbf1921d6	-0.59817255
10	0x3ed0dc49	0.40793064
11	0xbe012449	-0.12611498
12	0x3baea381	0.00532955
13	0x40255449	2.5832694
14	0x3ed0dc49	0.40793064
15	0xbe012449	-0.12611498
16	0xc0f7bf28	-7.7420845
17	0xbf1cda4c	-0.61270595
18	0x3f3abace	0.7294129
19	0xbe366d9e	-0.17815253
20	0x3b85b92d	0.0040809126
21	0x40241326	2.5636687
22	0x3f3abace	0.7294129
23	0xbe366d9e	-0.17815253

bn1.running_var f4 [24]
0	0x4152fd87	13.186896
1	0x3f8c0172	1.0937941
2	0x439e7759	316.9324
3	0x4140a532	12.040331
4	0x41e4b2a7	28.587233
5	0x402ebd13	2.7302902
6	0x439e7759	316.9324
7	0x4140a532	12.040331
8	0x414d6055	12.836019
9	0x3f8bd2c3	1.0923694
10	0x43958bca	299.0921
11	0x41417c95	12.092916
12	0x41ebd22c	29.477623
13	0x40303029	2.7529395
14	0x43958bca	299.0921
15	0x41417c95	12.092916
16	0x413cd9c0	11.803162
17	0x3f8d4385	1.103623
18	0x43963230	300.3921
19	0x414ccf18	12.80056
20	0x41f65f9d	30.796686
21	0x40397894	2.8979845
22	0x43963230	300.3921
23	0x414ccf18	12.80056

fc1.weight f4 [150, 24]
0	0xbd492d25	-0.04911532
1	0xbdd0cdea	-0.10195525
2	0x3d924df8	0.071437776
3	0x3d285c3f	0.041103598
4	0x3e3ad200	0.18244171
5	0x3b97f53b	0.004637388
6	0xbe143be0	-0.14475965
7	0x3cdbaa4a	0.026814599
8	0xbda239dc	-0.07921192
9	0x3e28f589	0.16499914
10	0xbe1d1199	-0.15338744
11	0xbdb2d01d	-0.08731101
12	0xbe020997	-0.1269897
13	0xbe35d82e	-0.17758247
14	0x3da89014	0.08230606
15	0xbe82b022	-0.25525004
16	0x3df6f92d	0.12059245
17	0x3dda79ec	0.10667786
18	0xbd4c2a68	-0.04984513
19	0xbe5608b5	-0.20901759
20	0xbe730cef	-0.23735403
21	0x3bf56636	0.007488991
22	0x3ab1788c	0.0013539954
23	0xbe349e09	-0.1763841
24	0x3e6f71b7	0.23383223
25	0xbce9cb63	-0.028539365
26	0x3dc94a01	0.09828568
27	0x3d18401e	0.037170522
28	0x3dbc7265	0.092015065
29	0xbde39790	-0.11112893
30	0xbe001d84	-0.1251126
31	0x3bfa6e38	0.0076425336
32	0xbe1fb579	-0.1559657
33	0xbe287193	-0.16449575
34	0x3d8dffee	0.0693358
35	0xbe33e5c9	-0.17568125
36	0xbe306c0a	-0.17228714
37	0x3ddb595f	0.107104056
38	0x3d993920	0.07481599
39	0xbe213db4	-0.15746194
40	0x3e38c0cf	0.180423
41	0xbde29750	-0.11064017
42	0x3d9bf154	0.07614389
43	0x3e0b2889	0.13589682
44	0x3d1f26c3	0.038855325
45	0x3dbd73b0	0.09250581
46	0xbe077cc5	-0.1323119
47	0xbe35fb64	-0.17771679
48	0x3d82aad0	0.06380236
49	0x3e05a5f1	0.13051583
50	0x3d4df917	0.05028638
51	0x3d8649ca	0.06557043
52	0x3e563ac1	0.2092085
53	0x3d7aefa4	0.061263695
54	0x3de1840e	0.110115156
55	0xbb331eb4	-0.0027331533
56	0x3b0dd3d2	0.0021641147
57	0x3df59257	0.11990803
58	0xbd23b845	-0.039970655
59	0xbd7ca8e2	-0.061684497
60	0x3d317c15	0.043331224
61	0x3c8a7ce4	0.016905256
62	0x3d8b045b	0.0678794
63	0x3bfe5196	0.0077611906
64	0x3dbdd3f4	0.092689425
65	0xbd35808e	-0.044312052
66	0xb892fc55	-7.008823e-05
67	0xbe2a7379	-0.16645612
68	0xbe2670c4	-0.16253954
69	0xbdc7dbc5	-0.097587146
70	0xbe12b61d	-0.14327283
71	0xbdb5a2b8	-0.08868927
72	0xbe00580a	-0.12533584
73	0xbe3c5286	-0.18390855
74	0xbe05ad16	-0.13054308
75	0x3e10758b	0.14107339
76	0x3d0d8993	0.03455503
77	0xbe043260	-0.12909842
78	0xbe02974b	-0.12753026
79	0x3c0c9a9f	0.008581786
80	0x3e241f5d	0.16027589
81	0x3cabe8a8	0.020984963
82	0x3d82e56d	0.06391416
83	0xbd3553e5	-0.04426946
84	0x3c7528dd	0.014963356
85	0x3e071e73	0.13195209
86	0xbb8d6138	-0.004314568
87	0xbdcbf261	-0.099583395
88	0x3e04faca	0.12986293
89	0x3d2c5139	0.042069647
90	0x3d955680	0.07291889
91	0x3d1f711a	0.03892622
92	0x3e91bac8	0.28462815
93	0x3ddf6961	0.10908771
94	0xbde4823f	-0.11157655
95	0x3e059efc	0.13048929
96	0xbd0cc5fe	-0.034368508
97	0x3e28de86	0.16491136
98	0x3d9ab2f0	0.07553661
99	0x3d82c236	0.06384699
100	0x3e78c43a	0.24293604
101	0x3d6660f7	0.056244817
102	0xbda86d78	-0.082240045
103	0xbdd4ea1e	-0.10396217
104	0x3d52c183	0.05145408
105	0x3dd05a5a	0.10173483
106	0x3d21b90b	0.03948311
107	0xbe22c785	-0.15896423
108	0x3de6f477	0.11277097
109	0x3dd81d34	0.10552445
110	0x3d080833	0.033210944
111	0x3d6f5a13	0.05843551
112	0xbd14ced3	-0.036330055
113	0x3e572c23	0.2101293
114	0xbe0b31ef	-0.13593267
115	0x3e33b5f8	0.17549884
116	0xbe3870d1	-0.18011786
117	0xbcc90ef1	-0.024543257
118	0x3e275e2f	0.16344522
119	0x3e26e9a9	0.16300072
120	0xbc410e4a	-0.011783192
121	0x3d3ee3c9	0.04660395
122	0x3e015ad5	0.12632306
123	0x3dc8e907	0.098100714
124	0xbe94e71c	-0.29082572
125	0xbcd7c60b	-0.026339551
126	0xbc263f79	-0.010146969
127	0x3cfddb1d	0.03098827
128	0x3cc31eda	0.023818422
129	0x3e00388f	0.12521575
130	0xbe6e7b30	-0.2328918
131	0xbbdab5d2	-0.0066745067
132	0xbdf428c1	-0.11921836
133	0x3d53ad08	0.051678687
134	0xbdb3c4c2	-0.08777763
135	0xbde6d7ea	-0.11271651
136	0x3dc71e22	0.09722544
137	0x3d878cc9	0.066186495
138	0xbd5c2226	-0.053743504
139	0xbde40b84	-0.11135009
140	0x3e35ebad	0.17765684
141	0x3e2ed809	0.17074598
142	0x3d9a988c	0.07548627
143	0xbdab3bbd	-0.083610035
144	0x3c49d647	0.012319154
145	0x3d1386d4	0.036017254
146	0xbe0af800	-0.13571167
147	0x3d1ea23c	0.038728938
148	0xbe8fcd31	-0.28086236
149	0x3d36a18f	0.044587668
150	0x3dfd0db0	0.12356126
151	0xbd2602e5	-0.040530104
152	0xbd526b16	-0.051371656
153	0xbaf36543	-0.0018569607
154	0x3de4ba29	0.1116832
155	0x3db48c87	0.08815866
156	0xbe56d455	-0.20979436
157	0xbe2440e6	-0.16040382
158	0xbe24ff23	-0.16112952
159	0xbdd8bf8b	-0.10583409
160	0xbd626773	-0.055274438
161	0x3d070e1c	0.03297244
162	0xbd7923cc	-0.060825154
163	0x3da5ae9b	0.08089944
164	0x3e8d210c	0.27564275
165	0x3c98fe94	0.01867608
166	0x3dbe772a	0.093000725
167	0xbe316d2d	-0.17326804
168	0x3dae05e3	0.084972166
169	0x3dbbf4c2	0.09177543
170	0x3d0e4cba	0.03474114
171	0x3d88a023	0.06671169
172	0xbd363440	-0.044483423
173	0x3e3ee8e1	0.18643524
174	0xbd8ccb8d	-0.06874762
175	0xbcc0d565	-0.023539254
176	0xbd2de763	-0.042456996
177	0xbe2a74d2	-0.16646126
178	0xbcbfb7a2	-0.023402993
179	0xbbfb1f58	-0.0076636486
180	0xbca47e44	-0.02007974
181	0xbd5633eb	-0.052295607
182	0xbd8a6f1f	-0.06759476
183	0xbdd81970	-0.10551727
184	0xbc840beb	-0.016118964
185	0xbdfd2ff8	-0.12362665
186	0x3db94e4b	0.09048136
187	0xbd7b43ce	-0.06134396
188	0x3df243d1	0.11829341
189	0xbe5ccb29	-0.21561874
190	0xbe65c310	-0.22437692
191	0x3d0c28ad	0.03421848
192	0xbdd98b1b	-0.106222354
193	0xbea89dd0	-0.329329
194	0xbd993f0d	-0.07482729
195	0x3e13f51c	0.1444897
196	0x3c89ca46	0.016820084
197	0x3dda21ea	0.10651
198	0x3d5ea3c8	0.054355413
199	0xbdbc317f	-0.09189128
200	0x3b498dfb	0.0030754793
201	0xbdda6e50	-0.10665572
202	0x3e01bdbd	0.12670036
203	0x3d451f1f	0.048125383
204	0xbd50ef7a	-0.051009633
205	0xbe5de255	-0.2166837
206	0xbe14c7ed	-0.1452939
207	0x3de05248	0.10953194
208	0x3dfde5fa	0.1239738
209	0xbe89a158	-0.26880908
210	0x3d4c2edd	0.04984938
211	0x3dae7d47	0.085199885
212	0x3e34b888	0.17648518
213	0x3dbd4e64	0.092434675
214	0x3c9deb25	0.019277165
215	0x3c0a6abe	0.008448301
216	0xbde06819	-0.10957355
217	0x3d96c706	0.073621795
218	0xbd68cc29	-0.056835327
219	0x3dbdf65d	0.09275506
220	0xbda9a63d	-0.082836606
221	0x3e021656	0.12703833
222	0x3df30d23	0.1186774
223	0xbc3cd9aa	-0.0115265045
224	0xbd7ee644	-0.062231317
225	0x3df333a1	0.11875082
226	0x3d9209ac	0.07130751
227	0xbd77110a	-0.060318984
228	0xbd88b834	-0.06675759
229	0xbe26ee14	-0.16301757
230	0x3c99c39d	0.018770033
231	0xbbc86d6f	-0.006116561
232	0xbe1215f6	-0.1426619
233	0xbdedbd27	-0.116083436
234	0x3b4b1638	0.0030988585
235	0xbd8d37e9	-0.0689543
236	0x3af10705	0.0018388933
237	0xbe820c4b	-0.25400004
238	0x3d9648e1	0.07338119
239	0x3d92de11	0.07171262
240	0x3ded0308	0.11572844
241	0xbd877ad3	-0.06615224
242	0x3ad05414	0.0015894198
243	0x3de42ed9	0.11141748
244	0x3eabc1fb	0.33546433
245	0x3cd29dd7	0.02571003
246	0xbd5ef831	-0.054435913
247	0xbd8000a9	-0.06250126
248	0xbddc8b3c	-0.10768744
249	0x3b731569	0.003709162
250	0x3c2d80ed	0.01058982
251	0x3d49bb1a	0.0492507
252	0x3e611692	0.21981266
253	0x3e48a0ba	0.19592562
254	0xbc42014a	-0.011841128
255	0xbdc77c94	-0.09740558

fc1.bias f4 [150]
0	0x3dcce802	0.100051895
1	0x3dcbf557	0.09958904
2	0x3dccb359	0.09995145
3	0x3dcd2775	0.100172915
4	0x3dcc8ab6	0.099873945
5	0x3dce3727	0.10069113
6	0x3dcc0e25	0.09963635
7	0x3dce12af	0.10062157
8	0x3dccb87f	0.09996127
9	0x3dce84e2	0.10083939
10	0x3dcc7d55	0.09984843
11	0x3dccfa71	0.100087054
12	0x3dcc3f52	0.09973015
13	0x3dcc1497	0.09964865
14	0x3dcc7f04	0.09985164
15	0x3dcb858c	0.099375814
16	0x3dccf213	0.100071095
17	0x3dcc67d3	0.099807404
18	0x3dcd4d9f	0.10024571
19	0x3dcd5f97	0.10027998
20	0x3dcd5b3c	0.10027167
21	0x3dcc88b6	0.09987013
22	0x3dcbd4f6	0.099527285
23	0x3dcd4e02	0.100246444
24	0x3dcc3704	0.09971431
25	0x3dcd0c26	0.10012083
26	0x3dcd1675	0.10014049
27	0x3dcccb95	0.09999768
28	0x3dccc886	0.09999184
29	0x3dcce0c0	0.10003805
30	0x3dccf69d	0.10007975
31	0x3dcc8f54	0.09988275
32	0x3dccc6dd	0.09998868
33	0x3dcc29a7	0.09968882
34	0x3dccb3cb	0.0999523
35	0x3dcb1429	0.099159546
36	0x3dccf51c	0.100076884
37	0x3dcc3cb3	0.09972515
38	0x3dcc0d2a	0.09963448
39	0x3dccc34b	0.09998187
40	0x3dcd92c4	0.10037759
41	0x3dccf0bd	0.10006855
42	0x3dcc658d	0.09980307
43	0x3dcd35ea	0.10020049
44	0x3dcc973a	0.09989782
45	0x3dcc7093	0.09982409
46	0x3dcb1ff1	0.09918202
47	0x3dcd648e	0.10028945
48	0x3dccb3c7	0.09995227
49	0x3dcd08b3	0.10011425
50	0x3dccd54e	0.10001622
51	0x3dcca03f	0.09991502
52	0x3dcd52c5	0.10025553
53	0x3dcb4cb8	0.09926742
54	0x3dcd5af8	0.100271165
55	0x3dcc9e10	0.099910855
56	0x3dccffcc	0.10009727
57	0x3dcc7f1e	0.09985183
58	0x3dce442c	0.100715965
59	0x3dcc8251	0.099857934
60	0x3dcc986b	0.09990009
61	0x3dcc687d	0.09980867
62	0x3dcbe8a3	0.09956481
63	0x3dcbb869	0.09947283
64	0x3dcc7324	0.09982899
65	0x3dcc0562	0.09961964
66	0x3dcca5ac	0.09992537
67	0x3dccb713	0.09995856
68	0x3dcd1e82	0.100155845
69	0x3dcd06e5	0.10011081
70	0x3dcd3a67	0.10020905
71	0x3dcccc37	0.099998884
72	0x3dcccc64	0.09999922
73	0x3dcd787a	0.10032745
74	0x3dcc4018	0.099731624
75	0x3dcd7cef	0.10033595
76	0x3dcc2a47	0.09969001
77	0x3dcdffa7	0.100585274
78	0x3dcefffd	0.1010742
79	0x3dccfccf	0.10009157
80	0x3dcc9d2d	0.099909164
81	0x3dcd081e	0.10011314
82	0x3dcca24c	0.09991893
83	0x3dccb7e0	0.09996009
84	0x3dcca0b1	0.09991587
85	0x3dcdbcf0	0.100458026
86	0x3dcc2fc1	0.09970046
87	0x3dcc8985	0.09987167
88	0x3dccca61	0.09999538
89	0x3dcc35f4	0.09971228
90	0x3dccb5e2	0.09995629
91	0x3dccd630	0.100017905
92	0x3dcd2339	0.10016484
93	0x3dcbf290	0.099583745
94	0x3dcbb3c4	0.09946397
95	0x3dcbc45c	0.09949562
96	0x3dcc8c3f	0.09987687
97	0x3dcd9b53	0.10039391
98	0x3dccdaea	0.10002692
99	0x3dcc6469	0.09980089
100	0x3dcd32b2	0.10019435
101	0x3dcd88c7	0.10035854
102	0x3dcc8749	0.09986741
103	0x3dcde922	0.10054232
104	0x3dcd3479	0.10019774
105	0x3dcc5e84	0.09978965
106	0x3dcc2a6e	0.0996903
107	0x3dcd765b	0.1003234
108	0x3dcc7e0e	0.099849805
109	0x3dcd42ed	0.10022531
110	0x3dce6ba2	0.10079123
111	0x3dcd4ad2	0.100240365
112	0x3dccd6bf	0.10001897
113	0x3dcb4ed5	0.099271454
114	0x3dcc5ac2	0.09978248
115	0x3dcce76f	0.1000508
116	0x3dccaa15	0.09993378
117	0x3dce28ce	0.100663766
118	0x3dccfd1a	0.10009213
119	0x3dcdf4ac	0.10056433
120	0x3dccb529	0.09995491
121	0x3dcc4c00	0.09975433
122	0x3dcb4b09	0.09926421
123	0x3dcca922	0.09993197
124	0x3dccb6d0	0.09995806
125	0x3dcd55f4	0.1002616
126	0x3dcbf61c	0.09959051
127	0x3dcd491d	0.10023711
128	0x3dcc61d5	0.099795975
129	0x3dcb1671	0.0991639
130	0x3dcc744d	0.0998312
131	0x3dce355a	0.1006877
132	0x3dce0965	0.100603856
133	0x3dcd934b	0.100378595
134	0x3dcc4f3a	0.09976049
135	0x3dcca251	0.09991897
136	0x3dcdecc1	0.10054923
137	0x3dcd4e9f	0.100247614
138	0x3dcdbf51	0.10046256
139	0x3dce4cec	0.100732654
140	0x3dcd7746	0.10032515
141	0x3dcea818	0.10090655
142	0x3dccc580	0.09998608
143	0x3dcd1258	0.100132644
144	0x3dcc72b7	0.099828176
145	0x3dccfb74	0.100088984
146	0x3dccfe35	0.10009424
147	0x3dcd3b2e	0.10021053
148	0x3dce437a	0.10071464
149	0x3dcd0b0b	0.10011872

bn2.weight f4 [150]
0	0x3eadc0ac	0.3393606
1	0x3f2d413d	0.6767767
2	0x3ea85c42	0.32882887
3	0x3eb8940f	0.3605046
4	0x3e8c5dc2	0.27415282
5	0x3f3749a5	0.7159675
6	0x3f557964	0.8338835
7	0x3ed1ab03	0.40950784
8	0x3e5d8bbd	0.21635337
9	0x3f1de47a	0.6167675
10	0x3f40de76	0.7533945
11	0x3f1fa29b	0.6235749
12	0x3e4afd88	0.19823277
13	0x3f2dc872	0.6788398
14	0x3e0dfa9d	0.13865133
15	0x3ecc702a	0.39929324
16	0x3eefcb88	0.4683497
17	0x3e2e8037	0.17041098
18	0x3f52b5b2	0.82308495
19	0x3e641eca	0.2227737
20	0x3f0e5e54	0.55612683
21	0x3e9eaac9	0.30989674
22	0x3f34a123	0.70558375
23	0x3f0e4f4e	0.5558976
24	0x3f382009	0.7192388
25	0x3f109036	0.5647005
26	0x3e8bc036	0.27295083
27	0x3ea51314	0.32241118
28	0x3f50fd0f	0.81636137
29	0x3f13247b	0.5747754
30	0x3ea80930	0.3281951
31	0x3e7e5ef9	0.24840917
32	0x3ef76384	0.48318112
33	0x3eb5656e	0.35428947
34	0x3eaa2640	0.33232307
35	0x3f67efe3	0.90600413
36	0x3ea85379	0.32876185
37	0x3f64f463	0.89435405
38	0x3f6bc40b	0.9209601
39	0x3e9da9ad	0.30793515
40	0x3f27679a	0.6539246
41	0x3e234e94	0.15947944
42	0x3efc2d87	0.49253485
43	0x3e93006c	0.2871126
44	0x3e7998dd	0.24374719
45	0x3f038d95	0.5138791
46	0x3f271d2a	0.65278876
47	0x3ed728ec	0.42023408
48	0x3ee7f351	0.45302823
49	0x3f27f04b	0.6560103
50	0x3e109439	0.14119042
51	0x3f0bb9c4	0.5458033
52	0x3e1b4189	0.15161718
53	0x3ecb057b	0.3965262
54	0x3f5c3a20	0.8602619
55	0x3ecd3708	0.40081048
56	0x3e8f44bc	0.27982128
57	0x3e2eab34	0.17057496
58	0x3f630d15	0.88691837
59	0x3f187dc4	0.59566903
60	0x3e6debbe	0.2323446
61	0x3ec72468	0.38894963
62	0x3f5a7546	0.85335195
63	0x3e47f86d	0.1952836
64	0x3f0a9f15	0.5414899
65	0x3eae441c	0.34036338
66	0x3e8eb2cd	0.2787079
67	0x3ec0db0b	0.37667117
68	0x3f355cf4	0.7084496
69	0x3e008d88	0.1255399
70	0x3eb00f70	0.34386778
71	0x3e3ab22f	0.18232034
72	0x3eb3eaf9	0.35140207
73	0x3e98d646	0.29850978
74	0x3f374bd2	0.7160007
75	0x3f15bed8	0.5849433
76	0x3f0765e1	0.5288983
77	0x3e8dac01	0.2767029
78	0x3f177fdc	0.5917947
79	0x3e48006c	0.19531411
80	0x3e0bb09c	0.1364159
81	0x3f375eed	0.7162922
82	0x3e238cde	0.15971705
83	0x3f09d343	0.53837985
84	0x3f1c7079	0.6110912
85	0x3ef20445	0.47268882
86	0x3f487d2c	0.78316
87	0x3ebecb19	0.37264326
88	0x3f44271d	0.7662218
89	0x3e72d8de	0.23715541
90	0x3e7369fc	0.23770899
91	0x3e6c7a86	0.23093614
92	0x3f36da39	0.7142673
93	0x3f1dda19	0.61660916
94	0x3ec8d13a	0.39222127
95	0x3f12b59f	0.5730838
96	0x3ea10abf	0.3145351
97	0x3f235f91	0.638177
98	0x3ecd96a9	0.40154007
99	0x3ec86418	0.39138865
100	0x3e8c31cb	0.2738174
101	0x3e6a80d3	0.22900705
102	0x3f01d955	0.5072225
103	0x3efd5ddc	0.49485672
104	0x3e34bdc4	0.17650515
105	0x3f5b33c6	0.85625875
106	0x3f29d050	0.66333485
107	0x3f499ecc	0.7875793
108	0x3f3298fc	0.69764686
109	0x3ef88608	0.48539758
110	0x3f27d042	0.6555215
111	0x3f316831	0.6929961
112	0x3f27a9fe	0.6549376
113	0x3eaffd37	0.34372875
114	0x3ea8cfa8	0.3297093
115	0x3f074633	0.5284149
116	0x3f4b6904	0.79457116
117	0x3e95954a	0.2921546
118	0x3ecece75	0.4039189
119	0x3eb754a7	0.35806772
120	0x3e046b84	0.12931639
121	0x3f0c6119	0.5483566
122	0x3efdb927	0.49555323
123	0x3f03f2cd	0.5154236
124	0x3f6a8ef5	0.91624385
125	0x3f16d292	0.58915055
126	0x3f459175	0.77175075
127	0x3f274744	0.6534312
128	0x3f0049ed	0.501128
129	0x3f66900d	0.90063554
130	0x3f12fd91	0.5741816
131	0x3efcff07	0.4941332
132	0x3f149f34	0.58055425
133	0x3ea1033b	0.31447777
134	0x3ee76290	0.45192385
135	0x3f474492	0.77839005
136	0x3f536106	0.8256992
137	0x3f64d684	0.89389825
138	0x3e963d3d	0.29343596
139	0x3f1753bd	0.5911215
140	0x3f2af8bf	0.66785806
141	0x3f4f9239	0.81082493
142	0x3e8740ea	0.26416713
143	0x3e44c41b	0.19215433
144	0x3f2b6875	0.66956264
145	0x3e7ee006	0.24890146
146	0x3f6229f0	0.8834524
147	0x3e461c35	0.19346698
148	0x3f322287	0.69583935
149	0x3eac55ac	0.33659112

bn2.bias f4 [150]
0	0x3d51a4b5	0.051182467
1	0xbd9dc2d3	-0.077031754
2	0x3c189a13	0.009314078
3	0xbd1842ae	-0.037172966
4	0x3cc6f5f1	0.024287196
5	0xbced5615	-0.028971711
6	0x3dfc0da9	0.12307293
7	0xbd8f3000	-0.06991577
8	0xbd256d42	-0.0403874
9	0x3dfe04c7	0.12403255
10	0xbdb53742	-0.0884843
11	0xbcf7c8e8	-0.030247167
12	0x3d02d0b2	0.03193731
13	0xbe8c8728	-0.27446866
14	0xbd8dd19b	-0.06924745
15	0xbd6216ef	-0.055197652
16	0x3c35be62	0.011092754
17	0x3d9426f6	0.07233994
18	0xbd251fe7	-0.040313628
19	0x3e1ad90a	0.15121856
20	0x3c52dcfd	0.0128700705
21	0xbda68c21	-0.08132196
22	0x3b6c3d99	0.0036047457
23	0xbe034d44	-0.12822443
24	0xbd2c6957	-0.042092647
25	0xbd99cde8	-0.075099766
26	0x3c968a0e	0.018376376
27	0x3d1f6a38	0.038919657
28	0x3d8c5727	0.068525605
29	0xbdc9824e	-0.09839307
30	0x3c261f97	0.010139368
31	0xbd29be4a	-0.04144124
32	0xbd4ba624	-0.04971899
33	0x3dd36d8d	0.103236295
34	0x3cf22e39	0.029563056
35	0x3d6a11c3	0.057145845
36	0xbd86e063	-0.06585767
37	0x3d95c54d	0.07313023
38	0x3c7e2963	0.015512797
39	0xbc07c251	-0.008286075
40	0xbe3227ea	-0.17398039
41	0xbd0396c1	-0.032126192
42	0xbd8bb076	-0.06820767
43	0x3dcbb2d3	0.099462174
44	0xbded6472	-0.11591424
45	0x3ce4e56a	0.027941424
46	0xbe1ab785	-0.1510907
47	0xbd292a54	-0.041300133
48	0x3e43376a	0.19064108
49	0xbe5386b3	-0.20656852
50	0xbd24aa1b	-0.040201288
51	0xbd96ffb4	-0.0737299
52	0xbdd58625	-0.10425977
53	0xbda09237	-0.07840388
54	0xbc22c9b8	-0.009935789
55	0x3b651cd9	0.0034959821
56	0x3c2010b3	0.009769606
57	0x3cf6dc6c	0.030134402
58	0xbc4404ca	-0.011964032
59	0x3d8e823a	0.069584325
60	0x3d7a56e2	0.061118014
61	0x3d800ab2	0.0625204
62	0xbe31147f	-0.17292975
63	0x3ca116c3	0.019664174
64	0xbdc66daf	-0.09688889
65	0x3d217cb8	0.03942558
66	0x3c5a60d7	0.0133287525
67	0xbe3172d2	-0.17328957
68	0xbd84a110	-0.06476033
69	0x3cce07ce	0.025150206
70	0xbcee65cf	-0.02910128
71	0x3da939b8	0.08262962
72	0x3d1f7875	0.038933236
73	0x3bb2ba2d	0.005454323
74	0xbdaddb5c	-0.08489105
75	0xba783cfc	-0.00094695366
76	0xbd31ba4f	-0.04339057
77	0x3d5cf99b	0.05394898
78	0xbdb766d6	-0.08955161
79	0xbb5795ef	-0.0032895764
80	0xbce3ecea	-0.02782293
81	0x3dd6f3c5	0.10495714
82	0x3d23ba62	0.03997267
83	0x3c52c439	0.012864166
84	0xbdc8db2b	-0.09807428
85	0xbd27d0ef	-0.04097074
86	0x3c40d567	0.011769629
87	0x3ce82e70	0.028342456
88	0xbe477be7	-0.19480859
89	0x3d702522	0.058629163
90	0xbcaf1007	-0.021369947
91	0x3e13885d	0.14407487
92	0xbda0e1e5	-0.07855586
93	0xbaa7a7bd	-0.0012791079
94	0x3cb36310	0.021897823
95	0x3dff0f12	0.12454046
96	0xbdda902e	-0.10672031
97	0x3d33ad06	0.04386618
98	0x39046669	0.00012626652
99	0x3db83c0d	0.08995829
100	0xbb4ab748	-0.0030931998
101	0x3d883c99	0.06652183
102	0x3de17906	0.110094115
103	0xbe159ded	-0.14611025
104	0xbb6e47f4	-0.0036358805
105	0xbe3a2560	-0.1817832
106	0x3dfa6afc	0.12227437
107	0xbd8ba6ac	-0.068188995
108	0xbd7a1f9c	-0.0610653
109	0xbe041502	-0.12898639
110	0x3e134145	0.14380367
111	0xbd252571	-0.04031891
112	0x3c227af2	0.009917008
113	0xbe6ad6fa	-0.2293357
114	0x3c077592	0.008267777
115	0xbd596d98	-0.053083032
116	0x3ce7bd52	0.028288517
117	0xbd0af8eb	-0.033928793
118	0x3bd16a3a	0.006390837
119	0x3b5aafc4	0.0033368925
120	0x3e01dd26	0.12682018
121	0x3deff853	0.11717286
122	0xbd339df9	-0.043851826
123	0xbdd11d57	-0.10210674
124	0x3aebf5be	0.0018002314
125	0xbcfdf83c	-0.031002156
126	0x3d81561d	0.06315253
127	0xbd9198fa	-0.07109256
128	0xbc71fcfe	-0.014769791
129	0x3d1f1f93	0.03884847
130	0x3c8bed02	0.017080788
131	0xbd6a7bf0	-0.057247102
132	0xbd2044ff	-0.0391283
133	0xbab207d6	-0.0013582658
134	0xbd68e138	-0.05685541
135	0xbdff88db	-0.12477275
136	0xbbbf84e4	-0.005844699
137	0xbdaa1843	-0.08305409
138	0x3bbbdc63	0.0057330593
139	0x3c8cdd9a	0.017195512
140	0x3bca0ed0	0.0061663166
141	0xbdbaa626	-0.091137215
142	0x3db8aee5	0.090177335
143	0xbd7c4aad	-0.061594654
144	0xbe1ce4c6	-0.15321645
145	0xbd54559b	-0.051839452
146	0xbd8ed5f1	-0.069744
147	0xbd8f8d9d	-0.070094325
148	0xbd2e4a5d	-0.042551387
149	0x3d608c4a	0.05482129

bn2.running_mean f4 [150]
0	0x3dceb54c	0.100931734
1	0x3dcd754e	0.1003214
2	0x3dcdb18d	0.10043631
3	0x3dcd7b11	0.10033239
4	0x3dcd2a83	0.10017874
5	0x3dcc5657	0.099774055
6	0x3dc8f699	0.0981266
7	0x3dcdb666	0.10044555
8	0x3dcc09f2	0.099628344
9	0x3dcda37e	0.10040949
10	0x3dcd891a	0.10035916
11	0x3dce93e6	0.10086803
12	0x3dcb71ff	0.099338524
13	0x3dcacc75	0.09902278
14	0x3dccce31	0.100002654
15	0x3dca15e5	0.09867457
16	0x3dd0242f	0.101631515
17	0x3dce34d3	0.10068669
18	0x3dcc5c4a	0.0997854
19	0x3dcb4d25	0.099268235
20	0x3dce3d02	0.1007023
21	0x3dcc8a66	0.09987335
22	0x3dcb1503	0.09916117
23	0x3dcd516f	0.10025298
24	0x3dca7ce5	0.09887103
25	0x3dcb6676	0.09931652
26	0x3dcefc8b	0.101067625
27	0x3dcc7be6	0.09984569
28	0x3dcd59f2	0.10026921
29	0x3dce1745	0.10063032
30	0x3dcbfcf4	0.09960356
31	0x3dcd0fe3	0.10012796
32	0x3dcc5c84	0.099785835
33	0x3dcb8804	0.09938052
34	0x3dcdb229	0.10043747
35	0x3dc91f99	0.0982048
36	0x3dcb3806	0.09922795
37	0x3dccfdf0	0.10009372
38	0x3dcf0569	0.10108454
39	0x3dca9335	0.09891359
40	0x3dcccdad	0.10000167
41	0x3dcd627c	0.1002855
42	0x3dccad1b	0.09993955
43	0x3dcda2da	0.10040827
44	0x3dcbf6dc	0.09959194
45	0x3dcdaa19	0.10042209
46	0x3dc85bbb	0.09783121
47	0x3dcb6906	0.09932141
48	0x3dcb54cf	0.09928285
49	0x3dcd42ac	0.10022482
50	0x3dcf599d	0.10124514
51	0x3dcbc42a	0.09949525
52	0x3dcdabb1	0.10042513
53	0x3dc8a625	0.097973146
54	0x3dcb15e6	0.09916286
55	0x3dc9b5b8	0.09849113
56	0x3dccd20c	0.10001001
57	0x3dcdcdd7	0.100490265
58	0x3dcd6d5a	0.10030623
59	0x3dccbabb	0.099965535
60	0x3dcc85f6	0.099864885
61	0x3dcd8ce3	0.10036638
62	0x3dcc2b08	0.09969145
63	0x3dcbdb97	0.09953993
64	0x3dcc4448	0.09973961
65	0x3dca85c4	0.09888795
66	0x3dcabbb4	0.09899083
67	0x3dce316e	0.10068022
68	0x3dcd90b4	0.100373656
69	0x3dcd543c	0.10025832
70	0x3dccc554	0.09998575
71	0x3dcd9898	0.100388706
72	0x3dce26ae	0.10065971
73	0x3dcc241f	0.09967827
74	0x3dcaeaf8	0.09908098
75	0x3dccaa44	0.09993413
76	0x3dcc83d3	0.09986081
77	0x3dcc0246	0.09961371
78	0x3dd2af67	0.102873616
79	0x3dcbeebc	0.09957644
80	0x3dcaf261	0.09909511
81	0x3dcd8a8e	0.10036193
82	0x3dcddff1	0.10052479
83	0x3dcd5eb9	0.100278325
84	0x3dcdb9da	0.10045214
85	0x3dcdf95f	0.100573294
86	0x3dcacc6d	0.099022724
87	0x3dcd4eab	0.1002477
88	0x3dcdb9e4	0.100452214
89	0x3dca3c09	0.09874732
90	0x3dcba597	0.09943693
91	0x3dc9dad6	0.09856193
92	0x3dcdbf4b	0.10046252
93	0x3dc8bdcf	0.09801828
94	0x3dcc8412	0.09986128
95	0x3dc8c196	0.098025486
96	0x3dcd4178	0.10022253
97	0x3dcda302	0.10040857
98	0x3dcc9ed5	0.09991232
99	0x3dcc2b3a	0.09969182
100	0x3dcbba9e	0.09947704
101	0x3dcd6cae	0.10030495
102	0x3dcaf864	0.09910658
103	0x3dcceb0a	0.10005768
104	0x3dcd5616	0.10026185
105	0x3dcc81e4	0.09985712
106	0x3dcc3a2e	0.099720344
107	0x3dd0cc46	0.10195212
108	0x3dcdde32	0.10052146
109	0x3dcab103	0.098970436
110	0x3dd012c1	0.10159827
111	0x3dccd3e1	0.1000135
112	0x3dcb4b08	0.099264205
113	0x3dc9585b	0.098313056
114	0x3dcad8ce	0.099046335
115	0x3dcdbb41	0.100454815
116	0x3dcd6fad	0.10031066
117	0x3dccb1d0	0.099948525
118	0x3dcb23b8	0.09918922
119	0x3dd1d291	0.102452405
120	0x3dcbac73	0.099450015
121	0x3dcca9ee	0.09993349
122	0x3dcbbb55	0.0994784
123	0x3dcbdf67	0.0995472
124	0x3dcde2a3	0.10052993
125	0x3dccdcff	0.10003089
126	0x3dccb008	0.09994513
127	0x3dcd1cf7	0.1001529
128	0x3dcab8db	0.0989854
129	0x3dc8fafd	0.09813497
130	0x3dcb2936	0.0991997
131	0x3dd01b66	0.10161476
132	0x3dd1239e	0.102118716
133	0x3dce5ed5	0.100766815
134	0x3dc9f8cf	0.098619096
135	0x3dcb18c6	0.099168345
136	0x3dd0ac57	0.10189121
137	0x3dccbaf0	0.09996593
138	0x3dcec313	0.10095801
139	0x3dcfde06	0.101497695
140	0x3dcdc7d8	0.10047883
141	0x3dce70f8	0.10080141
142	0x3dcba4ef	0.09943568
143	0x3dcef2ba	0.1010489
144	0x3dce2a58	0.1006667
145	0x3dcc0bbc	0.09963176
146	0x3dcef6a6	0.10105638
147	0x3dcbb07f	0.09945773
148	0x3dccca5b	0.09999534
149	0x3dce84c6	0.10083918

bn2.running_var f4 [150]
0	0x3db20d2f	0.08693921
1	0x3d752bbb	0.059856158
2	0x3d53600a	0.05160526
3	0x3d89c579	0.06727118
4	0x3d240ee6	0.04005327
5	0x3d92668b	0.07148465
6	0x3b9ff0d2	0.004881003
7	0x3d0d595f	0.03450906
8	0x3d761b76	0.060084783
9	0x3d4435fb	0.047903042
10	0x3d63b2bd	0.05559038
11	0x3dd5bf79	0.10436911
12	0x3db933c5	0.090430774
13	0x3e0826da	0.1329607
14	0x3dcc7ce8	0.099847615
15	0x3d7169d8	0.05893883
16	0x3e68dfff	0.22741698
17	0x3e1c5c30	0.15269542
18	0x3db75e1d	0.089534976
19	0x3dc95da1	0.098323114
20	0x3d802318	0.062566936
21	0x3de4a716	0.111646816
22	0x3e0c09be	0.13675591
23	0x3dfe9e31	0.12432516
24	0x3da44930	0.08021772
25	0x3d87090e	0.06593524
26	0x3e10a1f5	0.14124282
27	0x3db62233	0.08893242
28	0x3d9d89bb	0.076922856
29	0x3e76d53c	0.2410478
30	0x3e008112	0.12549236
31	0x3dfe126e	0.12405859
32	0x3dfcf75d	0.12351868
33	0x3da4f24b	0.08054026
34	0x3d81e028	0.063415825
35	0x3d54ac13	0.051921915
36	0x3dac39ee	0.08409487
37	0x3df2d59a	0.118571475
38	0x3dc80047	0.09765678
39	0x3df61548	0.12015778
40	0x3dd31ec0	0.103085995
41	0x3da90361	0.082525976
42	0x3e4d3bc8	0.20042336
43	0x3df3ed61	0.11910511
44	0x3da14c2b	0.07875856
45	0x3d87534e	0.06607686
46	0x3e1e2e37	0.15447317
47	0x3dc8ed09	0.09810836
48	0x3db9bb87	0.09068971
49	0x3dd8ef6d	0.10592542
50	0x3d939f2b	0.07208093
51	0x3dc01a1e	0.093799815
52	0x3d421e56	0.04739221
53	0x3da5652b	0.08075937
54	0x3e1dba80	0.15403175
55	0x3d96cab4	0.07362881
56	0x3d99ee87	0.075161986
57	0x3d225b61	0.039637927
58	0x3da845c5	0.082164325
59	0x3dc5e874	0.096634775
60	0x3dbf0f9d	0.0932915
61	0x3dc81b8a	0.09770878
62	0x3d40e59f	0.047093984
63	0x3dcf2890	0.101151586
64	0x3d55fda8	0.05224386
65	0x3d10d6d7	0.035361137
66	0x3e1ebe57	0.15502296
67	0x3d34f3ef	0.044177946
68	0x3db507ca	0.08839376
69	0x3dcbc0de	0.09948896
70	0x3e0f17b0	0.1397388
71	0x3daa3271	0.08310402
72	0x3d97ea63	0.074177526
73	0x3d7f6a39	0.06235716
74	0x3e67e57f	0.2264614
75	0x3d4f8fc9	0.050674234
76	0x3d84895d	0.064715125
77	0x3c491a7e	0.012274383
78	0x3de5d307	0.11221891
79	0x3d5f6faa	0.05454985
80	0x3e0e97fc	0.13925165
81	0x3d31422c	0.043275997
82	0x3df9d836	0.12199442
83	0x3e08434b	0.1330692
84	0x3e4a8120	0.1977582
85	0x3d89e59c	0.06733248
86	0x3dca9341	0.09891368
87	0x3e106d87	0.14104281
88	0x3e022263	0.1270843
89	0x3d6ad19e	0.057328813
90	0x3d730798	0.059333414
91	0x3e3b4c8c	0.18290919
92	0x3dc14311	0.0943662
93	0x3e34d71f	0.17660187
94	0x3e0cb34e	0.13740274
95	0x3c400702	0.011720421
96	0x3e0aac89	0.1354238
97	0x3dd1bff3	0.102416895
98	0x3dd4f70f	0.10398685
99	0x3df73c2c	0.12072024
100	0x3df5fad3	0.120107315
101	0x3d96c96a	0.073626354
102	0x3e44cbd3	0.19218378
103	0x3d90ec99	0.070763774
104	0x3e375dd9	0.17906894
105	0x3d891b9d	0.0669472
106	0x3d4245d1	0.047429863
107	0x3dbb24a2	0.091378465
108	0x3da54256	0.08069293
109	0x3e2346a3	0.15944915
110	0x3d4ba257	0.049715366
111	0x3da45a90	0.08025086
112	0x3debff83	0.11523344
113	0x3dc33fef	0.09533679
114	0x3e17a490	0.1480887
115	0x3d81a79a	0.063307956
116	0x3e0e5328	0.13898909
117	0x3d1c5148	0.038163453
118	0x3cd743c7	0.026277436
119	0x3d8dacb4	0.06917706
120	0x3de1f0ce	0.11032258
121	0x3d7f1944	0.062279955
122	0x3d3f4ca0	0.046703935
123	0x3d73500e	0.059402518
124	0x3d48013a	0.048829295
125	0x3d7000a2	0.058594353
126	0x3d0c1404	0.034198776
127	0x3da6d1be	0.08145474
128	0x3d9dd8cb	0.077073656
129	0x3df4c064	0.11950758
130	0x3e23325d	0.15937181
131	0x3dd587ad	0.10426269
132	0x3e044ae9	0.12919201
133	0x3d33fad4	0.04394038
134	0x3db17f9b	0.08666917
135	0x3e262d33	0.1622818
136	0x3dd0d9a8	0.10197765
137	0x3e461811	0.19345118
138	0x3d3890b9	0.045059893
139	0x3d0add1c	0.033902273
140	0x3dda2b5b	0.10652801
141	0x3dba4cb7	0.090966634
142	0x3e0e62ce	0.13904878
143	0x3de23b55	0.11046473
144	0x3dbc3cbc	0.09191272
145	0x3e39f042	0.18158057
146	0x3d47c89b	0.048775297
147	0x3e24d0bb	0.1609525
148	0x3df00d4d	0.11721287
149	0x3e364b86	0.17802247

fc2.weight f4 [100, 150]
0	0xbdbe6b82	-0.09297849
1	0xbdd61572	-0.10453309
2	0x3e565d5b	0.2093405
3	0xbdf4beb3	-0.119504355
4	0xbc1f2a64	-0.009714697
5	0x3d123f5a	0.035704948
6	0x3dbe1896	0.09282033
7	0xbe1161c1	-0.14197446
8	0xbda32e85	-0.07967857
9	0x3cc00f0b	0.023444673
10	0x3d6be2ef	0.057589468
11	0xbe0bce1b	-0.13652842
12	0x3e307bc3	0.17234711
13	0xbd8c2d60	-0.06844592
14	0xbdca1d0b	-0.09868821
15	0xbd911082	-0.07083227
16	0xbd30dc47	-0.043178823
17	0xbe1941bc	-0.14966482
18	0x3d04647a	0.032322384
19	0x3e08fe74	0.13378316
20	0x3cab9762	0.020946208
21	0xbdc3844a	-0.095467165
22	0xbc94112f	-0.0180746
23	0x3d7b713a	0.06138728
24	0xbdbd76be	-0.09251164
25	0xbc91d1a9	-0.017800169
26	0xbe348272	-0.17627886
27	0x3d418e28	0.04725471
28	0x3e239bd9	0.1597742
29	0x3d97de8e	0.07415496
30	0x3d1903ee	0.037357263
31	0xbdb19336	-0.086706564
32	0x3dea9768	0.1145466
33	0x3e166305	0.1468621
34	0xbd180efc	-0.037123665
35	0xbcdcf839	-0.02697383
36	0xbdd38c52	-0.10329498
37	0xbdf1e3fa	-0.11811061
38	0xbd1c05cf	-0.038091477
39	0xbd9660c3	-0.073426746
40	0x3d10015b	0.035157543
41	0x3e10637c	0.1410045
42	0x3e07c878	0.13260067
43	0xbdaf5e7d	-0.08562944
44	0xbe844b87	-0.25838873
45	0xbdf423ce	-0.11920892
46	0xbcd5438d	-0.026033187
47	0x3d966ca4	0.0734494
48	0xbaf41648	-0.0018622363
49	0xbc8aee01	-0.016959192
50	0xbd3c5c43	-0.045986425
51	0xbbedfaa9	-0.007262547
52	0x3c6f114f	0.014591529
53	0xbdf7cbe2	-0.120994344
54	0xbcb6ed1e	-0.022329863
55	0x3e07b97d	0.13254352
56	0xbc96ba71	-0.018399449
57	0xbd79280b	-0.060829204
58	0x3e030bbb	0.12797444
59	0x3d3219ae	0.04348152
60	0xbde0d866	-0.10978775
61	0x3d50da16	0.050989233
62	0xbd339e6a	-0.043852247
63	0x3e530f43	0.2061129
64	0x3cb182a2	0.021668736
65	0x3e16ca26	0.14725551
66	0x3e78c4fa	0.2429389
67	0x3dc21071	0.09475792
68	0xbdb10ebf	-0.08645391
69	0x3d4918cc	0.049095914
70	0x3e35ad99	0.17742004
71	0x3cbbde66	0.022933196
72	0xbc089216	-0.008335611
73	0xbd9c637e	-0.07636164
74	0x3b776f0c	0.0037755398
75	0x3e405030	0.18780589
76	0x3dbb4975	0.0914487
77	0x3be21817	0.0068998444
78	0x3afa95f2	0.0019118174
79	0x3cea45af	0.02859768
80	0xbcc942d5	-0.024568
81	0x3de4ec31	0.111778624
82	0x3e38c720	0.1804471
83	0x3e3ca8a8	0.18423712
84	0x3d19a7ea	0.03751365
85	0x3d3fa196	0.04678496
86	0xbd785f6c	-0.060637876
87	0xbe61948e	-0.22029325
88	0xbd1a2e47	-0.03764179
89	0x3dbca47f	0.09211063
90	0x3d18385e	0.03716313
91	0x3dc6ff98	0.097167194
92	0xbdca23eb	-0.09870132
93	0x3e6a7d6d	0.22899409
94	0x3dd6d81c	0.10490438
95	0x3df1ff3c	0.1181626
96	0x3d4e537d	0.05037259
97	0xbcdfd92d	-0.027325237
98	0xbd5214ff	-0.051289555
99	0x3a18d9b7	0.0005830782
100	0x3cf96c15	0.030447045
101	0x3e4c5ae3	0.19956546
102	0xbd659132	-0.056046672
103	0x3e56f25b	0.20990889
104	0x3da1c24c	0.07898387
105	0x3d895c82	0.067070976
106	0xbe0657fc	-0.13119501
107	0xbd53b846	-0.05168941
108	0xbc9fbff9	-0.01950072
109	0x3d5d85e1	0.054082755
110	0xbe11fdec	-0.1425702
111	0xbe0e374b	-0.1388828
112	0x3caa20c6	0.02076758
113	0x3dfe653c	0.12421653
114	0xbd9ee17e	-0.07757853
115	0x3bb127e9	0.005406369
116	0x3d2ac4a4	0.041691437
117	0x3db5daa5	0.08879594
118	0x3ca5e976	0.020252924
119	0xbdd89973	-0.10576143
120	0xbdbfde97	-0.093686275
121	0xbe10ee23	-0.14153342
122	0xbc9f8616	-0.019473117
123	0xbd346b8d	-0.04404788
124	0x3d91c2d2	0.07117237
125	0x3e5a9e40	0.2134943
126	0x3e194398	0.14967191
127	0xbe02cba4	-0.12772995
128	0xbde5d31f	-0.11221909
129	0x3d544483	0.05182315
130	0x3e095faa	0.13415399
131	0x3da3d008	0.07998663
132	0x3defceb6	0.11709349
133	0xbe324c21	-0.17411853
134	0xbd254df6	-0.040357552
135	0x3c505e89	0.012717851
136	0xbd5f6892	-0.054543085
137	0xbdaa6fe5	-0.083221234
138	0x3c3f9868	0.011694051
139	0xbd74f934	-0.05980797
140	0xbdec359d	-0.115336634
141	0xbdba0cba	-0.09084459
142	0x3e469a51	0.19394805
143	0x3e293b46	0.16526517
144	0x3c74e0a0	0.014946133
145	0x3a9497b9	0.0011336721
146	0x3c59bc41	0.013289512
147	0x3d61f2a2	0.055163033
148	0xbcb9aab8	-0.022664413
149	0xbe02c8ab	-0.12771861
150	0x3e6ddce3	0.23228793
151	0xbcad0189	-0.021118896
152	0xbc7f57dc	-0.015584912
153	0x3d658730	0.056037128
154	0x3e254e52	0.16143158
155	0xbc680737	-0.014161876
156	0x3e2e3ad0	0.17014623
157	0xbd31c88d	-0.04340415
158	0x3d297aff	0.041377064
159	0xbd400610	-0.04688078
160	0x3d8501df	0.064944975
161	0x3dd611c0	0.10452604
162	0x3c02ceb3	0.007983851
163	0x3df97c6c	0.12181935
164	0xbe6514b9	-0.22371186
165	0xbe2a7c2b	-0.16648929
166	0xbca6cf3b	-0.020362487
167	0x3e70a801	0.23501588
168	0xbdb73497	-0.089455776
169	0x3de91641	0.11381198
170	0xbe14e39f	-0.14539956
171	0x3d574f98	0.05256614
172	0x3e03010d	0.1279337
173	0x3d6a5cf6	0.05721756
174	0xbd284d8b	-0.041089576
175	0x3d2fba33	0.042902183
176	0x3e2df146	0.1698657
177	0x3cece372	0.028917048
178	0x3c4ac0f2	0.012375103
179	0xbe10b7c9	-0.14132608
180	0xbd4a6a97	-0.04941806
181	0x3d33ec39	0.04392645
182	0x3df13ea7	0.11779528
183	0x3dd0a174	0.10187045
184	0x3da40c4e	0.080101594
185	0xbcbaefaf	-0.022819368
186	0xbccfd738	-0.025371179
187	0x3dbde5d6	0.09272353
188	0xbe21a6fe	-0.15786359
189	0xbb808c46	-0.003922972
190	0xbdb896b4	-0.09013119
191	0x3e722d1d	0.23650022
192	0xbd5f2f81	-0.054488663
193	0xbc0b8f07	-0.008517987
194	0x3d8976d5	0.067121185
195	0x3e65bee5	0.22436102
196	0x3e2b0605	0.16701515
197	0xbd7765b4	-0.060399726
198	0x3d7500f5	0.059815366
199	0xbd9bf21e	-0.076145396
200	0xbddc3e1b	-0.10754033
201	0xbd80c2c7	-0.06287151
202	0x3e5bc129	0.21460404
203	0x3e297b25	0.16550882
204	0x3cedc177	0.029022915
205	0x3cb6b047	0.022300852
206	0x3e4af0c2	0.19818404
207	0x3e1e5bd3	0.15464716
208	0x3d8ef8ee	0.06981073
209	0xbcfedfc5	-0.031112561
210	0x3e0e0784	0.13870054
211	0xbd9fc497	-0.078011684
212	0x3cf1fd39	0.029539691
213	0xbd0d7a72	-0.0345406
214	0xbd2ba1e3	-0.041902434
215	0xbd441798	-0.047874063
216	0xbd038d90	-0.032117426
217	0xbe0de059	-0.13855113
218	0xbe10e5c8	-0.14150155
219	0x3e19de17	0.15026127
220	0x3e016845	0.12637432
221	0xbd6b4bc0	-0.057445288
222	0x3d396f9d	0.04527246
223	0xbd820207	-0.06348043
224	0x3e2bc866	0.16775665
225	0x3e208908	0.15677273
226	0xbd926674	-0.07148448
227	0xbdb6dbb1	-0.089286216
228	0xbde17298	-0.11008185
229	0x3e016bc0	0.1263876
230	0x3df65b48	0.12029129
231	0x3ddacd35	0.106836714
232	0x3e3a4f7e	0.18194386
233	0xbe607279	-0.21918668
234	0xbcbab2bf	-0.02279031
235	0xbe5b0e5b	-0.21392195
236	0xbc659094	-0.014011521
237	0xbdf952c9	-0.12173993
238	0xbdcdc05d	-0.10046456
239	0x3d287227	0.04112449
240	0xbb4084b3	-0.002937597
241	0xbd1bd35d	-0.03804337
242	0x3d177eba	0.03698609
243	0xbd9b6e4b	-0.07589396
244	0xbb1b89b5	-0.0023733203
245	0xbd9d4fbc	-0.07681224
246	0xbdc997cc	-0.09843406
247	0xbcf83836	-0.030300241
248	0x3dd3e5cc	0.10346565
249	0xbda24209	-0.079227515
250	0xbd8ce7e4	-0.06880167
251	0xbe01f2cc	-0.12690276
252	0xbd3bbe44	-0.04583575
253	0xbdd79bbb	-0.1052775
254	0xbdd5b126	-0.10434179
255	0x3c4b585c	0.012411203

fc2.bias f4 [100]
0	0x3dcd219e	0.100161776
1	0x3dcd447b	0.10022827
2	0x3dccfa1c	0.10008642
3	0x3dcbf43d	0.09958694
4	0x3dcc89b5	0.09987203
5	0x3dcd4cd4	0.100244194
6	0x3dcd33a1	0.10019613
7	0x3dcc89cf	0.099872224
8	0x3dcd3b4e	0.10021077
9	0x3dce0428	0.100593865
10	0x3dcd1689	0.10014064
11	0x3dccd076	0.10000698
12	0x3dccaecf	0.099942796
13	0x3dcc5d96	0.099787876
14	0x3dcd0734	0.100111395
15	0x3dcd8148	0.10034424
16	0x3dcce5a0	0.10004735
17	0x3dce0124	0.10058811
18	0x3dcbdb7c	0.09953973
19	0x3dcd6c1e	0.10030387
20	0x3dcbe467	0.09955674
21	0x3dcc0baf	0.09963166
22	0x3dccce69	0.10000307
23	0x3dcc9946	0.09990172
24	0x3dcbb1b8	0.099460065
25	0x3dcc24c9	0.09967954
26	0x3dccab42	0.09993602
27	0x3dcc0f4c	0.09963855
28	0x3dccc17c	0.09997842
29	0x3dccdc99	0.10003013
30	0x3dccd4aa	0.100015
31	0x3dcc4b46	0.09975295
32	0x3dcd39d7	0.10020798
33	0x3dcd102b	0.100128494
34	0x3dccc6c7	0.09998851
35	0x3dccb287	0.09994989
36	0x3dccf278	0.10007185
37	0x3dcc79f1	0.09984196
38	0x3dcca375	0.099921145
39	0x3dcc8e17	0.09988039
40	0x3dcbfea1	0.09960676
41	0x3dcd1b8e	0.10015021
42	0x3dd10017	0.10205095
43	0x3dccca0e	0.099994764
44	0x3dcc7628	0.09983474
45	0x3dccd3c7	0.10001331
46	0x3dccde98	0.10003394
47	0x3dcc6b35	0.099813856
48	0x3dcc7dfe	0.099849686
49	0x3dcc89d4	0.09987226
50	0x3dcc6605	0.09980396
51	0x3dcd864c	0.10035381
52	0x3dcc83c0	0.09986067
53	0x3dcc9bec	0.09990677
54	0x3dccc46f	0.09998404
55	0x3dcd44db	0.10022899
56	0x3dcc6ff5	0.099822916
57	0x3dcc6975	0.09981052
58	0x3dccdf90	0.10003579
59	0x3dcccea3	0.1000035
60	0x3dccea24	0.10005596
61	0x3dccdb15	0.10002724
62	0x3dcc9a3f	0.099903576
63	0x3dcc8a97	0.099873714
64	0x3dcced1d	0.10006163
65	0x3dcc0f2e	0.09963833
66	0x3dcc5678	0.0997743
67	0x3dcd03ba	0.100104764
68	0x3dcd352e	0.10019909
69	0x3dce0779	0.10060019
70	0x3dcc4e4a	0.0997587
71	0x3dccd1e4	0.10000971
72	0x3dcc8abb	0.09987398
73	0x3dccd95c	0.100023955
74	0x3dccc0af	0.09997689
75	0x3dcb9113	0.0993978
76	0x3dccdad6	0.10002677
77	0x3dccd4fe	0.100015625
78	0x3dcccd6f	0.10000121
79	0x3dcc9202	0.09988786
80	0x3dcc2e2d	0.09969745
81	0x3dcc2726	0.099684045
82	0x3dcd1499	0.10013694
83	0x3dccfa92	0.1000873
84	0x3dcc129f	0.09964489
85	0x3dcdaf2e	0.100431785
86	0x3dccd1a5	0.10000924
87	0x3dcd3e29	0.10021622
88	0x3dcd6f13	0.10030951
89	0x3dccd0d1	0.10000766
90	0x3dcce031	0.100036986
91	0x3dcd0725	0.10011128
92	0x3dcd15d0	0.10013926
93	0x3dcde796	0.10053937
94	0x3dcd2da7	0.10018473
95	0x3dccd758	0.10002011
96	0x3dcca4c8	0.09992367
97	0x3dcc68d4	0.09980932
98	0x3dcca0fc	0.09991643
99	0x3dccc0a1	0.099976785

bn3.weight f4 [100]
0	0x3f120222	0.57034504
1	0x3ef2c698	0.4741714
2	0x3f1ceec1	0.6130181
3	0x3fa07c2c	1.2537894
4	0x3f068d2d	0.5255917
5	0x3f70315a	0.93825305
6	0x3f514ffb	0.81762666
7	0x3f343f26	0.70408857
8	0x3f0ad53e	0.5423163
9	0x3faef423	1.3668255
10	0x3f713fe7	0.9423813
11	0x3f361f4c	0.71141505
12	0x3ed86ca5	0.4227039
13	0xbf4346c0	-0.7627983
14	0x3f764ec8	0.9621396
15	0x3fae90ab	1.3637899
16	0x3ecb3bee	0.3969416
17	0x3fc6d180	1.5532684
18	0x3f9a76cb	1.2067503
19	0x3f88eb71	1.0696851
20	0x3fb0b5ba	1.3805459
21	0x3fae2a30	1.3606625
22	0x3ec0b882	0.37640768
23	0x3f07307c	0.52808356
24	0x3f72b8c9	0.9481321
25	0x3f88b854	1.0681252
26	0x3fa37589	1.2770244
27	0x3f94e06d	1.1630989
28	0x3f94ab37	1.1614751
29	0x3f3e1afd	0.7425993
30	0x3fb1b09d	1.3882023
31	0x3f5c14fe	0.8596953
32	0x3f2914ef	0.6604757
33	0x3fb6eea5	1.4291579
34	0x3f44c110	0.7685709
35	0x3f7d2b41	0.98894125
36	0x3ea53e1c	0.32273948
37	0x3f7064df	0.9390392
38	0x3f58f44a	0.84747756
39	0x3f65d3ad	0.89776117
40	0x3f58c915	0.84681827
41	0x3f7dffa0	0.9921818
42	0x3fd50d64	1.6644711
43	0x3f2a0f8d	0.6642998
44	0x3f69a79f	0.91271394
45	0x3f958a00	1.1682739
46	0x3f5b9c42	0.85785306
47	0x3f2b7f99	0.66991574
48	0x3f3e01c0	0.7422142
49	0x3f43d9f8	0.7650447
50	0x3f17c217	0.5928053
51	0x3f4fa08a	0.8110434
52	0x3f946db3	1.1595978
53	0x3faf8727	1.371312
54	0x3ecf6148	0.40503907
55	0x3f4f6d7c	0.81026435
56	0x3f3cf545	0.7381175
57	0x3f5ef8a7	0.87098163
58	0x3f8420b8	1.0322485
59	0x3f1b9453	0.607732
60	0x3f0e7700	0.5565033
61	0x3f8295b3	1.0201935
62	0x3f8d0cdc	1.1019549
63	0x3f9a821e	1.2070959
64	0x3f100792	0.5626155
65	0x3fa5ced0	1.2953739
66	0x3f99138b	1.1959089
67	0x3f872d2d	1.0560662
68	0x3f7d731a	0.99003756
69	0x3f805391	1.0025502
70	0x3f54d9d4	0.8314488
71	0x3f899637	1.0748967
72	0x3f130d01	0.5744172
73	0x3f977252	1.1831763
74	0x3f917f8b	1.1367048
75	0x3f80c052	1.0058692
76	0x3e63bf90	0.22241044
77	0x3f24f458	0.6443534
78	0x3f21f331	0.63261706
79	0x3ea0e173	0.31422004
80	0x3f9c9d28	1.223546
81	0x3ebe6ff6	0.37194794
82	0x3f1eca8b	0.62027806
83	0x3f11d9c4	0.5697291
84	0x3f5e7d3c	0.8690984
85	0x3f4dbf2c	0.8036983
86	0x3f4d0d4a	0.800984
87	0x3eec8828	0.4619763
88	0x3f6ce215	0.92532474
89	0x3f37cd97	0.7179808
90	0x3f410ce9	0.75410324
91	0x3f45b354	0.7722676
92	0x3ec08f0e	0.37609142
93	0x3fbbb34b	1.4664091
94	0x3fa73820	1.3064003
95	0x3fab8497	1.3399838
96	0x3eb403fe	0.35159296
97	0x3f08c703	0.5342867
98	0x3f784fe9	0.96996933
99	0x3e82ae8e	0.255238

bn3.bias f4 [100]
0	0xbc85e7dc	-0.01634591
1	0x3d2387b6	0.039924346
2	0xbbeb6fc7	-0.0071849558
3	0x3d8f2a03	0.06990435
4	0x3d8f8d44	0.07009366
5	0xbd2bed9b	-0.041974645
6	0x3c9d924e	0.019234803
7	0x3e0607a8	0.13088858
8	0x3de07b38	0.10961002
9	0xbe2c4809	-0.16824354
10	0x3e09e078	0.13464534
11	0x3e165a78	0.14682949
12	0xbd84c49b	-0.06482812
13	0xbe326a6a	-0.17423406
14	0x3d5bb12d	0.053635765
15	0x3cf0c16c	0.029389106
16	0x3cd75967	0.026287748
17	0xbd9fabb5	-0.077964224
18	0xbcde2428	-0.02711685
19	0xbd0f9303	-0.03505231
20	0x3db260b4	0.08709851
21	0xbe1508fd	-0.1455421
22	0x3d0a13fa	0.033710457
23	0xbd18fb94	-0.0373493
24	0xbd5ad99a	-0.053430177
25	0xbd51e8fa	-0.051247574
26	0xbdb0c212	-0.08630766
27	0xbcaad297	-0.02085237
28	0x3a438e0a	0.0007459825
29	0x3cd835fa	0.026392926
30	0xbdb89859	-0.09013433
31	0x3c763681	0.015027643
32	0x3e869ba1	0.2629061
33	0xbc7bd5d1	-0.015370802
34	0xbdd06fe4	-0.101775914
35	0xbdaccdb1	-0.0843767
36	0xbd6a3443	-0.057178747
37	0x3d4115f1	0.047140066
38	0x3d9cd08c	0.07656965
39	0xbe1fd6ef	-0.15609334
40	0xbcb11659	-0.021617102
41	0xbcc30fa9	-0.023811178
42	0x3e72146c	0.23640603
43	0xbd81d084	-0.06338599
44	0xbd5a621b	-0.053316217
45	0xbc89d637	-0.016825778
46	0x3d6ec61b	0.058294397
47	0xbbe92ff0	-0.0071163103
48	0x3d64053b	0.05566905
49	0x3e254631	0.16140057
50	0x3de4a670	0.11164558
51	0xbdbfb7ed	-0.09361253
52	0x3e41dd62	0.18932107
53	0x3de14e5b	0.11001273
54	0x3e35d514	0.17757064
55	0x3d3f5052	0.04670746
56	0xbb1d8787	-0.002403708
57	0x3dc7c6c1	0.09754706
58	0x3e466740	0.19375324
59	0x3e147e6a	0.14501348
60	0x3d1987a8	0.037482888
61	0xbcac157e	-0.021006342
62	0xbc39992d	-0.011328024
63	0xbcf89d6c	-0.030348502
64	0xbe5e5f67	-0.2171608
65	0xbcff8f8a	-0.031196374
66	0xbbe29bd1	-0.0069155474
67	0xbe001b1e	-0.12510344
68	0x3ce0f431	0.02746019
69	0xbe4126ee	-0.18862507
70	0x3d8abe17	0.06774538
71	0xbc0341c8	-0.008011289
72	0x3d9dad70	0.07699096
73	0xbd8f8a92	-0.07008852
74	0x3e55f79c	0.20895237
75	0xbe1c26ae	-0.1524913
76	0x3d113b30	0.035456836
77	0x3cf41919	0.029797124
78	0x3d909125	0.07058934
79	0xbc44bea9	-0.012008348
80	0x3d7f33a9	0.062305126
81	0xba09bc60	-0.00052542053
82	0x3d227895	0.039665777
83	0x3d7b4e4f	0.061353978
84	0xbe0d8430	-0.13819957
85	0x3dc30b02	0.09523584
86	0xbdb3177e	-0.08744715
87	0x3cba492c	0.02273997
88	0xba69e930	-0.0008922992
89	0x3e6a59f3	0.22885875
90	0x3c87447b	0.016512146
91	0xbd7ba4a8	-0.061436325
92	0x3d13d520	0.036091924
93	0x3db1c29a	0.086796954
94	0xbbdbd47a	-0.006708679
95	0xbd32e4d0	-0.043675244
96	0x3bb3b459	0.0054841456
97	0x3c0166e0	0.0078980625
98	0xbdf7d639	-0.121014066
99	0xbccb1326	-0.024789404

bn3.running_mean f4 [100]
0	0x3e9caab7	0.30598995
1	0x3f0e1ba5	0.5551093
2	0x3d58ee7a	0.052961804
3	0x3eae6e80	0.3406868
4	0x3e0f71c8	0.14008248
5	0x3eea9502	0.4581681
6	0x3ef00c8f	0.4688458
7	0xbd992777	-0.074782304
8	0x3d7866c7	0.06064489
9	0x3f0922df	0.53568834
10	0x3ef29bdb	0.47384533
11	0x3f05cc2a	0.52264655
12	0x3e3487dc	0.17629951
13	0xbebb7351	-0.36611417
14	0x3e626bb9	0.22111405
15	0x3c15051c	0.009095456
16	0x3f00f5ab	0.5037486
17	0x3e9b4e95	0.3033339
18	0x3e162ffe	0.14666745
19	0x3dc8f8db	0.098130904
20	0x3d5063c1	0.050876383
21	0x3db1ce9e	0.08681987
22	0x3e3336d5	0.17501386
23	0x3e5edb7c	0.21763414
24	0x3f682879	0.90686756
25	0x3d9e920c	0.077427
26	0x3e85249d	0.26004496
27	0x3ead7212	0.3387609
28	0x3effd520	0.4996729
29	0xbd007f54	-0.03137143
30	0x3eb95c81	0.36203387
31	0x3c9d04cf	0.019167332
32	0xbed150b1	-0.40881875
33	0x3e9467d8	0.28985476
34	0x3e3a6680	0.18203163
35	0x3f3a5223	0.7278158
36	0x3ee7c135	0.45264593
37	0xbd1ef010	-0.03880316
38	0x3e091b01	0.13389207
39	0x3dd41886	0.1035624
40	0x3e37fc20	0.17967272
41	0xbdacb3e3	-0.08432748
42	0x3e118b5d	0.14213319
43	0xbd28bf16	-0.04119786
44	0x3e9794b1	0.2960563
45	0x3da5ab46	0.080893084
46	0x3e931e5a	0.28734094
47	0x3cdb6588	0.026781812
48	0xbed5f5de	-0.41789144
49	0x3eb0df04	0.34545147
50	0x3efbc4fa	0.4917372
51	0x3f153006	0.582764
52	0x3f089069	0.5334535
53	0x3f030df6	0.5119318
54	0x3d7e669a	0.062109567
55	0x3eef8371	0.4677997
56	0x3ecf9ae0	0.40547848
57	0x3eab415c	0.33448303
58	0x3e66b4ac	0.22529858
59	0x3ecca8a4	0.39972413
60	0x3eb210ec	0.34778535
61	0x3f0acd43	0.54219455
62	0x3e824747	0.25445005
63	0x3ea86dd3	0.3289629
64	0x3f4967bc	0.7867391
65	0x3e789b32	0.24277952
66	0x3f25566a	0.6458498
67	0x3e82e75e	0.25567144
68	0x3ea36b45	0.31917778
69	0x3e17c053	0.1481946
70	0xbe2a2a7f	-0.16617773
71	0xbe50fdec	-0.20409364
72	0x3e815aa6	0.25264472
73	0x3ea22be9	0.31674126
74	0x3c870d9d	0.016485984
75	0x3eed1929	0.46308258
76	0xbeaafcdb	-0.33396038
77	0x3cb5e8b0	0.02220568
78	0x3db51dc0	0.08843565
79	0x3efc5eab	0.49290976
80	0x3c32717f	0.010891317
81	0x3ec9eb3d	0.39437285
82	0x3de2cc04	0.11074069
83	0xbe1b2745	-0.15151699
84	0x3eba2518	0.36356425
85	0x3eeb5690	0.4596448
86	0x3ebe16b5	0.371267
87	0xbdfc5889	-0.12321574
88	0x3e0028fa	0.12515631
89	0x3e9c4f97	0.30529472
90	0x3ed32a57	0.4124324
91	0x3e680de5	0.2266155
92	0x3dc52098	0.096253574
93	0x3f1d8554	0.6153157
94	0x3e2cdb03	0.16880421
95	0xbe3f707e	-0.18695256
96	0x3e46ecf0	0.19426322
97	0xbddc4ea2	-0.107571855
98	0x3e28e5a4	0.16493851
99	0x3ec73fd5	0.38915887

bn3.running_var f4 [100]
0	0x3e0411b7	0.12897383
1	0x3e32e2df	0.17469357
2	0x3debeaed	0.11519418
3	0x3dd8556a	0.105631664
4	0x3e7deeca	0.24798122
5	0x3e0c1c69	0.13682713
6	0x3dcafae4	0.09911135
7	0x3e235ab6	0.15952572
8	0x3e19a6e1	0.15005066
9	0x3df24974	0.11830416
10	0x3dd4c8a2	0.1038983
11	0x3db3f484	0.08786872
12	0x3ddb2aca	0.10701521
13	0x3dbf3624	0.093364984
14	0x3dcb23a2	0.09918906
15	0x3d9b1be5	0.0757368
16	0x3e34dc00	0.17662048
17	0x3d90408e	0.07043563
18	0x3e26a149	0.16272463
19	0x3dd886ff	0.105726235
20	0x3eb2989e	0.34882063
21	0x3da8d3e5	0.08243541
22	0x3e36e77f	0.17861746
23	0x3e1cbb81	0.15305902
24	0x3e7d4012	0.24731472
25	0x3debd2eb	0.11514839
26	0x3defbc50	0.1170584
27	0x3de0a544	0.10969022
28	0x3db89219	0.09012241
29	0x3e1e4c66	0.15458831
30	0x3e15a489	0.14613546
31	0x3e36ec19	0.17863502
32	0x3eb02526	0.34403342
33	0x3deb4094	0.11486927
34	0x3e3fc7c3	0.18728547
35	0x3dcae4e9	0.099069424
36	0x3eb1c870	0.34723234
37	0x3e5224e5	0.20521887
38	0x3ec5aedf	0.3860998
39	0x3e093a8c	0.1340124
40	0x3da51693	0.08060946
41	0x3d697dcc	0.057004735
42	0x3dfcb00c	0.12338266
43	0x3e34eecc	0.17669219
44	0x3d6b0aeb	0.05738346
45	0x3dea8d9e	0.114527926
46	0x3ec509cc	0.38484037
47	0x3e78c92d	0.24295492
48	0x3e5b3c04	0.21409613
49	0x3d47bbcc	0.04876308
50	0x3e8b8c54	0.272555
51	0x3e07e3ba	0.13270465
52	0x3e4da4dc	0.2008242
53	0x3e623a1c	0.2209248
54	0x3e5257d1	0.20541312
55	0x3e1523c4	0.14564425
56	0x3dcd5f39	0.10027928
57	0x3e809265	0.2511169
58	0x3e19394c	0.14963263
59	0x3e4b8d91	0.19878222
60	0x3e547794	0.2074874
61	0x3e16fa09	0.14743818
62	0x3e26e884	0.16299635
63	0x3e4c6bc5	0.19962986
64	0x3df6c6fb	0.12049671
65	0x3e05b3e5	0.13056906
66	0x3dd80075	0.10546962
67	0x3da725b3	0.081614874
68	0x3e763e40	0.24047184
69	0x3da5ac0f	0.08089458
70	0x3e557a73	0.20847492
71	0x3dfdf146	0.12399535
72	0x3e52a159	0.20569362
73	0x3d7df929	0.062005196
74	0x3e698dad	0.22807951
75	0x3d8f75af	0.07004868
76	0x3e659b61	0.22422554
77	0x3e28539e	0.16438147
78	0x3ee43d4c	0.44578016
79	0x3d82ef0f	0.06393253
80	0x3e694eb9	0.22783937
81	0x3da28619	0.07935733
82	0x3e38995a	0.18027249
83	0x3e9e04a5	0.30862918
84	0x3e038c96	0.12846598
85	0x3d99747c	0.07492921
86	0x3da9259c	0.082591265
87	0x3da4fee6	0.080564305
88	0x3dc0a4a4	0.09406403
89	0x3e4492be	0.19196603
90	0x3d7e0f99	0.062026594
91	0x3e267288	0.16254628
92	0x3dcc65a2	0.099803224
93	0x3e428d9c	0.18999332
94	0x3e30d4e0	0.17268705
95	0x3e4b7e9d	0.19872518
96	0x3ed0e912	0.4080282
97	0x3d7e6f15	0.062117655
98	0x3d5a128b	0.05324034
99	0x3da3d797	0.08000105
