checkpoint_critic2.pth (torch_old, 111495 bytes, 9 tensors)

fcs1.weight f4 [150, 24]
000000 b9 a8 13 3d 7e 7c 30 3d 3a 60 4b bc 5f b9 a3 bc
       0.03604958 0.043087475 -0.012413079 -0.019985853
000010 f4 60 da 3d c7 25 26 be 81 d0 31 bd 4b ae 08 be
       0.106630236 -0.16225348 -0.043411735 -0.13347737
000020 05 8f 61 3e 48 57 8f 3e b3 20 20 be 93 55 7a bd
       0.22027214 0.27996278 -0.15637474 -0.061116766
000030 ef ee 25 3e 50 94 1a be 38 e2 2c 3e cf e3 00 3e
       0.16204427 -0.15095639 0.1688317 0.12586902
000040 d8 b2 0b 3e 82 ac 83 bc 89 83 93 bd e5 5b 12 bd
       0.13642442 -0.01607347 -0.07202823 -0.03573217
000050 da a7 9a 3e 7b 4b 0b bd bc 72 0a bc 97 51 4b be
       0.30206186 -0.03400753 -0.008450206 -0.19855343
000060 15 04 1a 3b 02 7c 21 3e b6 d2 f3 bd 71 76 62 bd
       0.0023500968 0.15769961 -0.11905424 -0.055288736
000070 77 22 f4 bd fc bb 75 3e f8 c9 ac bc e5 3a 39 bd
       -0.11920636 0.23997492 -0.0210924 -0.04522218
000080 ed 42 31 3c a5 ad 53 be 79 1a 35 be f3 33 9a 3d
       0.010819179 -0.20671709 -0.1768588 0.0752944
000090 dc e5 5e 3e d3 f4 07 3e 28 c5 fd bc 92 ba fe bd
       0.21767372 0.13276987 -0.0309778 -0.12437929
0000a0 a5 2b 9e bd 2d d9 55 3d 27 01 fe 3d a8 5d df bd
       -0.07723168 0.052209068 0.124025635 -0.109065354
0000b0 89 2c 2b 3e d3 16 87 be fa 9a 1a 3e 17 32 e3 3d
       0.16716208 -0.263846 0.15098181 0.11093538
0000c0 f7 75 95 3c 5b c7 c0 bd f8 b7 e5 bb 12 34 98 3d
       0.018244727 -0.09413024 -0.007010456 0.074318066
0000d0 b3 e9 04 3d de e8 a1 3e 67 0c 3b 3c e5 55 b2 bd
       0.032449435 0.31622976 0.011416531 -0.08707789
0000e0 66 3a 3c bc 87 a5 9b bd 73 e4 4f 3d 0f cf e0 bc
       -0.011488533 -0.07599931 0.050754976 -0.027442483
0000f0 d9 37 c8 bc 7e cc 59 3e d0 3f 79 bd e5 8c 7b 3c
       -0.024440693 0.21269414 -0.060851872 0.015353416
000100 d9 41 24 3d 15 b4 30 be 03 4c f7 3d 4a 99 3c 3e
       0.04010186 -0.17256196 0.12075045 0.1841785
000110 2e 9b 6f 3c 1d 9f 96 be 66 fc d5 bd 62 3a 22 be
       0.0146244 -0.2941827 -0.10448532 -0.15842584
000120 c2 4a d6 3c 64 50 0e be 9f 0a 27 be 3a 5e 23 3d
       0.026158694 -0.13897854 -0.16312645 0.039884783
000130 61 6a e5 3d 68 e9 82 3d 0d 3f 0c 3e 70 1b a6 bd
       0.11201931 0.06392175 0.13695927 -0.08110702
000140 3f 63 54 be 56 b5 bc bd cc 24 e5 bd c9 47 23 3e
       -0.20740984 -0.092142746 -0.11188659 0.15945353
000150 b7 91 0f 3e f1 f1 ae 3d ea 7f e6 3d b6 b5 e7 bd
       0.1402043 0.085422404 0.112548664 -0.113139555
000160 a6 cd 90 3d 1b 24 98 3d 56 e7 00 bd 9d 7f b5 bd
       0.07070474 0.074287616 -0.03147062 -0.08862231
000170 54 95 4d be 45 3d 07 be a1 52 7c bc df 26 0c be
       -0.20076495 -0.13206966 -0.01540056 -0.13686703
000180 55 9e e1 bb 0f ac 14 3d 3c 22 0e be 28 da bc bd
       -0.0068853297 0.0362969 -0.13880247 -0.092212975
000190 01 e5 21 3e 95 e7 fb 3d 06 bd 1b 3d 0a 94 88 3d
       0.15810014 0.1230003 0.038022064 0.06668861
0001a0 1f a3 a8 38 0b b4 1a 3e f7 f4 9f 3d 29 1a a4 3d
       8.041248e-05 0.15107743 0.07810395 0.08012802
0001b0 ff bf d9 3d 36 54 0b 3d 49 80 9d 3c 39 2b 13 be
       0.106323235 0.034015857 0.01922621 -0.14371957
0001c0 f8 ba 01 bc e7 ed ec bd 23 e2 ec bd bb cf 44 be
       -0.007918112 -0.11568814 -0.1156657 -0.19219868
0001d0 3d 02 b5 3e 53 b5 29 be 9b 43 09 3d d0 59 8b 3d
       0.3535327 -0.16573076 0.03351174 0.0680424
0001e0 97 8d 47 be c4 08 af bb 31 d9 a8 bc 20 df 76 bd
       -0.19487606 -0.005341621 -0.020611377 -0.060271382
0001f0 94 0a 89 3e 5c d6 8b bd f7 89 da 3d 46 e6 7c bd
       0.26765883 -0.06827995 0.10670846 -0.061743043
000200 64 0e a4 bd ec c5 63 bd 90 d5 40 bc 38 dd ae bd
       -0.08010557 -0.055608675 -0.011769667 -0.08538288
000210 5e 1b fb 3c a0 d3 f1 bd 56 e6 a6 3c f0 f9 55 3d
       0.030652698 -0.118079424 0.020373505 0.052240312
000220 a2 76 b3 3c f0 bd d9 3d 64 c6 59 3c 20 4f fd 3c
       0.021907154 0.10631931 0.013291929 0.030921519
000230 11 9a 02 bd 46 da 93 bd bc b4 05 3e 57 7e c3 bc
       -0.03188521 -0.07219367 0.13057226 -0.023863954
000240 80 e2 23 3c c1 c7 88 bd df 9d 82 3b 6d e2 56 3e
       0.010002732 -0.06678725 0.003986105 0.20984812
000250 7d 32 a8 3d 51 2e 19 be 44 b1 8b bd 16 e0 95 3d
       0.08212755 -0.14959075 -0.0682092 0.073181316
000260 07 98 0b bd f5 8f d8 bd 7f 93 27 3e cd 70 da bd
       -0.03408053 -0.105743326 0.16364859 -0.10666046
000270 8d 5b 19 be f7 07 9d 3e 5f 02 02 3e 64 ea 5f bd
       -0.1497633 0.3067014 0.12696217 -0.05466689
000280 66 97 06 3e 57 3d 4f bd 1a 5a 05 3e 47 1e a6 bd
       0.13143691 -0.050595608 0.13022652 -0.08111244
000290 df 8a 78 be 8a 7d 42 be 54 26 e7 3d d0 fd 03 be
       -0.24271725 -0.18993202 0.112866074 -0.1288979
0002a0 73 a1 5c bd a6 4f d8 3d 7d 4e 05 bd 0f 4f f4 bb
       -0.053864907 0.10562067 -0.032545555 -0.0074557136
0002b0 6e d8 02 3e 73 d0 9c 3d 0c 90 07 3d a7 f2 20 3c
       0.12777874 0.07656946 0.03309636 0.009823478
0002c0 46 39 13 3d 8e f1 fb 3b 63 4b 20 3d 97 cf 40 bd
       0.035943292 0.0076887077 0.039134394 -0.047072973
0002d0 e4 7e e0 3d df 7f 4b 3d ce 84 23 bd 80 c4 38 3d
       0.109617025 0.049682494 -0.039921574 0.045109272
0002e0 c7 00 90 3d 8b f4 89 3d 54 07 8f 3d 80 ac 29 3e
       0.07031398 0.06736096 0.069838196 0.1656971
0002f0 e3 e4 a1 be 27 3c b7 3c 25 a9 92 bd 48 2a 11 be
       -0.3161994 0.02236755 -0.07161168 -0.14176285
000300 e8 90 8d 3d e3 76 a6 3d f7 a1 30 bd 44 42 8b bd
       0.06912404 0.081281446 -0.04312321 -0.067997485
000310 a8 8d 68 3b cd 25 69 3e 2b f6 a7 3d 7f 12 d3 3d
       0.0035484824 0.22768326 0.0820125 0.10306262
000320 00 64 a0 bd 49 2c 95 bc 27 55 d7 bd de 71 60 bd
       -0.078315735 -0.018209593 -0.105142884 -0.054796092
000330 b7 c2 87 bb 0a 3a 17 bd 5e 1e 0e 3e 59 e4 86 bd
       -0.004143085 -0.036920585 0.13878772 -0.065865226
000340 17 6c 3a be 0a d4 7f 3e 5c bd 07 be 19 59 17 3e
       -0.18205296 0.2498323 -0.13255829 0.14780082
000350 2c 4f 2e 3e dd f3 ff 3d 29 6f e9 3d b4 8d 38 3d
       0.17022389 0.12497685 0.11398155 0.045057014
000360 f8 ea ba 3b 8d dc c2 3c 9e 68 f3 3d 0c 6b a6 3d
       0.00570428 0.023786807 0.118851885 0.08125886
000370 54 14 24 bc be e2 55 3d 03 22 13 3e 76 33 66 bd
       -0.010014612 0.05221819 0.14368443 -0.05620142
000380 2d 33 01 3c d3 0d 51 be 93 20 fd 3d e3 51 37 bd
       0.007885736 -0.2041543 0.12359729 -0.044755828
000390 c2 41 e5 bc b2 ad 09 3d c5 b1 00 3c 50 bd 38 be
       -0.027985457 0.033612914 0.007854884 -0.18040967
0003a0 ee 4d 1b 3e 23 75 0b be a4 12 d4 3c c2 ec 96 3d
       0.15166447 -0.13618903 0.025887795 0.07369377
0003b0 c4 f1 73 3d bf a2 0e 3e d0 64 e2 bd 25 0a 8c bd
       0.059556738 0.1392927 -0.11054385 -0.068378724
0003c0 bc b4 8d 3c 11 4d 38 bd f9 cb 01 bd ed 41 0a 3e
       0.017298095 -0.04499537 -0.031688664 0.13501711
0003d0 2e 97 fc bc 1f 2e 66 be 09 69 23 3d e6 b1 06 be
       -0.030833807 -0.22478531 0.03989509 -0.131538
0003e0 79 3a 38 3e 58 5f 5a 3c ce ed 94 3d 23 ce ec bd
       0.17991056 0.013328396 0.0727192 -0.11562755
0003f0 12 d6 01 bd 86 2b 1f 3e 10 5e 2e bd 9d 6f 07 3e
       -0.031698294 0.15543947 -0.042570174 0.13226171

fcs1.bias f4 [150]
000000 ac a3 d2 3d 2f b7 cb 3d 42 e9 cf 3d 44 43 ca 3d
       0.10285124 0.09947049 0.10151912 0.09876111
000010 a4 c3 cf 3d 2a 3c d0 3d 6f 8d cf 3d 66 e4 bc 3d
       0.10144737 0.101677254 0.10134398 0.09223251
000020 83 ea ca 3d e7 21 d4 3d f4 e0 d2 3d 4b 3e c7 3d
       0.09908011 0.10358029 0.10296813 0.09728678
000030 8c fd b4 3d 28 99 cc 3d 85 b4 d1 3d ce a0 ce 3d
       0.08837423 0.0999015 0.102395095 0.10089265
000040 4e 42 ce 3d 97 62 cd 3d 41 90 c6 3d 3d 64 cd 3d
       0.1007124 0.1002857 0.09695483 0.100288846
000050 9c 55 c7 3d d4 51 cc 3d 2d ac d0 3d 32 3c d4 3d
       0.097331256 0.09976545 0.1018909 0.10363044
000060 48 2d cb 3d 6c 73 8e 3d a3 50 cb 3d 24 0c d1 3d
       0.09920746 0.06955609 0.099274896 0.10207394
000070 92 f3 cf 3d 19 84 cd 3d b7 c3 cc 3d 29 4a dd 3d
       0.10153879 0.10034961 0.09998267 0.108051606
000080 68 2b d2 3d d4 20 cc 3d d7 7d ce 3d 61 4a df 3d
       0.10262185 0.09967199 0.10082596 0.109028585
000090 a4 59 cd 3d 1f a5 cd 3d a8 16 cd 3d 44 cb cc 3d
       0.10026863 0.1004126 0.10014087 0.09999707
0000a0 67 10 cc 3d 7f 37 ce 3d 30 38 c8 3d 4f 80 cd 3d
       0.09964066 0.10069179 0.09776342 0.100342385
0000b0 fb 1a cf 3d 16 69 cb 3d 86 9f cf 3d 9f 2d d0 3d
       0.10112568 0.09932153 0.101378486 0.101649515
0000c0 d7 6e cb 3d 15 0b cd 3d 5f d0 ca 3d 9a 2e cb 3d
       0.099332504 0.10011879 0.09903025 0.09920998
0000d0 0f ef cf 3d 0c 82 d1 3d fc fb cb 3d ab b9 c3 3d
       0.10153019 0.102298826 0.099601716 0.09556898
0000e0 5c b3 cd 3d 47 11 cb 3d 7d d9 cd 3d 9f 1f d0 3d
       0.10043976 0.09915405 0.10051248 0.10162281
0000f0 06 fe cc 3d 10 04 cc 3d a0 01 ce 3d 25 72 bd 3d
       0.100093886 0.09961712 0.10058904 0.09250287
000100 92 a4 d0 3d ac f0 ca 3d 2b e0 cc 3d a4 f6 ce 3d
       0.10187639 0.09909186 0.10003694 0.10105637
000110 94 8e cc 3d 42 eb c9 3d 8a 4d d2 3d af 34 cc 3d
       0.09988132 0.09859325 0.10268696 0.09970986
000120 61 fb d1 3d f3 92 d8 3d 0b 9a d5 3d 3e 0a d3 3d
       0.10253025 0.10574903 0.10429772 0.10304688
000130 2a 3a ce 3d 00 f8 cd 3d 03 3a cb 3d 51 5c cb 3d
       0.10069688 0.10057068 0.09923174 0.09929717
000140 5f df e1 3d 0f 5a ce 3d 0c e3 ca 3d 57 de c3 3d
       0.11028933 0.10075771 0.09906587 0.09563892
000150 34 c3 cb 3d d0 d4 c9 3d af 98 e1 3d 6a ac cc 3d
       0.099493414 0.09855044 0.1101545 0.09993823
000160 0d 1b c5 3d 29 ba ce 3d dd dd cd 3d d0 de ce 3d
       0.096243 0.10094101 0.10052083 0.10101092
000170 0e 0f ce 3d 1c e6 cc 3d 4f 18 cf 3d b5 56 cd 3d
       0.10061465 0.100048274 0.10112058 0.10026304
000180 e0 78 cc 3d 71 72 cc 3d 85 9d cb 3d c3 09 cf 3d
       0.099839926 0.099827655 0.09942154 0.10109284
000190 ab 37 d1 3d ef 04 cd 3d 16 c8 cc 3d 7b 89 cf 3d
       0.10215696 0.10010707 0.09999101 0.10133644
0001a0 6f ae cc 3d 2e b6 cd 3d 94 3b e2 3d 41 81 cb 3d
       0.09994208 0.10044514 0.1104652 0.099367626
0001b0 56 f1 c9 3d 22 0d d3 3d c6 d4 c9 3d 53 04 d2 3d
       0.09860484 0.10305239 0.098550364 0.10254731
0001c0 db b0 cd 3d 86 7e cd 3d ac 57 cf 3d 67 44 cc 3d
       0.10043498 0.10033898 0.10124144 0.09973984
0001d0 50 87 c6 3d e7 25 c4 3d b4 1a d1 3d b0 45 d0 3d
       0.096937776 0.09577542 0.10210171 0.10169542
0001e0 4b bb cc 3d e7 ae d1 3d 75 b6 ce 3d 78 bc cb 3d
       0.09996661 0.10238438 0.10093395 0.09948057
0001f0 9f d2 cc 3d 2c e9 cc 3d 7a c0 ce 3d 72 46 cc 3d
       0.1000111 0.100054115 0.10095306 0.09974374
000200 ba e1 cc 3d 00 59 c9 3d bd 60 cc 3d 36 00 cc 3d
       0.100039914 0.098314285 0.09979389 0.09960978
000210 21 a7 cb 3d 0b 2f ce 3d 4d 48 e7 3d af cd cd 3d
       0.09943987 0.100675665 0.11293087 0.10048997
000220 d3 33 cc 3d fb f1 cc 3d 40 ad ca 3d 57 72 ca 3d
       0.09970822 0.100070916 0.09896326 0.0988509
000230 7c fb cb 3d 3e 09 cd 3d a9 a0 cc 3d 97 56 c9 3d
       0.09960076 0.100115284 0.09991581 0.09830969
000240 ab ef cb 3d 00 0a b7 3d fc 11 ca 3d 98 9d cb 3d
       0.099578224 0.08937454 0.098667115 0.09942168
000250 e5 28 ce 3d 93 d0 c8 3d
       0.10066394 0.098054074

bn1.weight f4 [150]
000000 b9 2c ff 3e 01 84 bc 3e 16 ac f1 3e 57 0d d9 3e
       0.49838808 0.3681946 0.47201604 0.4239299
000010 cd 68 9c 3e 65 ef a0 3e 66 46 26 3f 50 41 c2 3e
       0.30548707 0.31432644 0.6495117 0.37940454
000020 23 09 a0 3e 50 97 3b 3f 26 8a 4b 3f 0a 12 2f 3f
       0.3125697 0.7327776 0.7950767 0.683869
000030 3a 3c 82 3f 47 dd df 3d f2 55 d5 3e 35 9c d9 3d
       1.017463 0.10930877 0.41667134 0.10625497
000040 04 41 6a 3e 86 91 19 3f 58 b0 4a 3f 8d 5b 96 3d
       0.22876364 0.59987676 0.7917533 0.07341681
000050 40 28 1f 3f af 25 56 3e e1 1f 40 3f b8 3a 09 3f
       0.6217079 0.20912813 0.75048643 0.5360522
000060 b2 1d 4b 3e c8 ca 5d 3f 8f 73 35 3e 1a 40 9a 3e
       0.19835547 0.86637545 0.17719863 0.3012703
000070 6d 23 6c 3e eb 63 f3 3e 57 36 dd 3e d3 6b d0 3e
       0.23060389 0.4753717 0.4320552 0.40707263
000080 ed aa 52 3e b0 4d f5 3e a4 11 07 3f 1e c5 3f 3f
       0.20573016 0.47910833 0.5276129 0.7491015
000090 71 07 05 3e dc ac 07 3f 2b ff 69 3d 90 7a 91 3e
       0.1299112 0.5299814 0.057128113 0.2841382
0000a0 5a 81 aa 3e 19 f8 2e 3e f4 04 1e 3f 5d 8f de 3d
       0.33301812 0.17086829 0.6172631 0.10867188
0000b0 c2 65 d3 3e 66 76 2e 3e 74 f3 17 3f 7d 42 11 3f
       0.41288573 0.17037353 0.59355855 0.5674208
0000c0 e5 bf fd 3e ee 55 93 3e e2 67 92 3e 28 2f 95 3e
       0.49560466 0.28776497 0.2859488 0.2913754
0000d0 57 67 4f 3f 5d d6 f5 3e 6b 32 49 3e eb 12 86 3e
       0.8101706 0.4801511 0.19648139 0.26186308
0000e0 d4 ec 9f 3e 1c 78 86 3e ff 1c 7c 3e 4f 5a 2a 3f
       0.31235373 0.2626351 0.24620436 0.6654405
0000f0 31 68 33 3e 7e c9 4b 3f a2 66 3d 3f 8e 48 6e 3e
       0.17520215 0.7960433 0.7398473 0.23269865
000100 68 7c 50 3f d9 2c a8 3d 5a 88 a9 3e e5 14 3f 3e
       0.8143983 0.08211679 0.3311184 0.18660314
000110 e1 29 f8 3d a5 a7 f8 3e 3b 9b f3 3e c9 4d be 3e
       0.12117363 0.48565403 0.4757937 0.3716872
000120 b2 b0 d9 3e a9 52 1f 3f 37 85 00 3e 6c f3 e3 3e
       0.4251762 0.62235504 0.12550817 0.44521654
000130 ae d4 ff 3d 48 70 68 3e 1c 9a 42 3f 06 f2 84 3e
       0.12491737 0.22699082 0.760164 0.259659
000140 a8 c9 ba 3e 07 e7 44 3d 37 95 3e 3f 8e b7 12 3f
       0.36481977 0.048071887 0.74446434 0.5731133
000150 b1 39 c0 3d b5 9d 9f 3e dc 4f 71 3f ea 96 50 3d
       0.09386004 0.31175008 0.9426248 0.050925173
000160 68 d3 0b 3f 76 fe d5 3d 9e 45 fc 3d 99 67 ab 3e
       0.54619455 0.10448925 0.12317966 0.33477476
000170 07 62 03 3f 8a d5 56 3d c8 5a 55 3e 65 f2 ed 3d
       0.5132145 0.05244974 0.20835412 0.11618499
000180 f6 ff 99 3e ca 14 5e 3e 52 9a 0a 3f d2 1e ba 3e
       0.30078095 0.21687618 0.54141724 0.3635164
000190 78 6f b6 3e 87 f7 92 3d bd f0 d8 3e c6 ca 50 3d
       0.3563192 0.07176118 0.4237117 0.05097463
0001a0 da 8a 54 3d 4c 8f 10 3f 0e 0c 94 bd 39 66 e4 3e
       0.05189023 0.56468654 -0.07228862 0.4460924
0001b0 d7 35 f2 3e 73 14 e1 3e cf ef 3c 3f 94 2f 98 3e
       0.47306702 0.43960914 0.7380342 0.297238
0001c0 03 95 38 3f a9 8c 7c 3e da 25 e8 3d 68 b2 07 3e
       0.72102374 0.24663033 0.113353446 0.1325165
0001d0 f7 b3 21 3f 81 c9 f3 3e dd 76 e8 3e 37 ea 95 3e
       0.6316523 0.47614673 0.45403185 0.29280254
0001e0 c0 14 86 3e d6 80 ff 3e ad 5b 7c 3e c7 a8 b0 3e
       0.26187706 0.49902982 0.24644347 0.34503767
0001f0 93 31 67 3e de 4f 37 3e 69 7a 0a 3f b3 e8 ce 3e
       0.22577505 0.1790156 0.54093033 0.4041191
000200 db 64 51 3d ba b3 43 3f d3 fc 23 3f b9 ff 0d 3f
       0.051121574 0.76446116 0.64057654 0.55468327
000210 2d ea 0d 3f 41 ff 82 3e 5e 26 21 3f e1 87 32 3f
       0.5543545 0.25585368 0.6294917 0.69738585
000220 36 25 0c 3f c1 c4 4a 3e cd e0 3b 3e 0e 24 bf 3e
       0.5474428 0.19801618 0.18347473 0.37332195
000230 27 6c 29 3f ff 76 46 3e cc 74 79 3e b2 8f 7a 3e
       0.6618065 0.19381331 0.2436096 0.24468878
000240 48 5d c0 3d 75 05 2c 3f b5 87 a6 3e 02 a7 e8 3e
       0.09392792 0.67195827 0.3252541 0.45439917
000250 62 f6 3f 3f 14 b3 c9 3e
       0.74985325 0.39394438

bn1.bias f4 [150]
000000 5a 98 e6 bd 08 cf e6 bc 1b 01 d4 bc 78 88 01 bd
       -0.112595275 -0.028174892 -0.025879433 -0.031624287
000010 69 2b 17 bd eb 71 72 bd f2 e9 db bd ea 5c 49 be
       -0.036906634 -0.059190672 -0.10737981 -0.1966435
000020 0d 36 fd bc de 11 6e bd 59 50 90 bb df 02 01 3d
       -0.030909562 -0.05812251 -0.0044041094 0.03149688
000030 ba 0b 0a 3e df 61 c0 bd 0d 74 33 be 05 8e 84 bd
       0.13481036 -0.093936674 -0.17524739 -0.064724006
000040 d4 53 ff bc 2f c2 85 3c 55 88 0b 3d d4 69 7f bd
       -0.031167902 0.016327946 0.034065563 -0.062356785
000050 b3 36 d6 3d c8 26 e8 3b 19 0e b4 bd 12 5f 53 bd
       0.10459652 0.007084701 -0.087917514 -0.051604338
000060 6d 38 f2 bc 68 a0 7f be b5 58 bf bd bb e2 a2 bc
       -0.029567922 -0.24963534 -0.093430914 -0.019883504
000070 04 fb 1e 3b d5 8a 12 3d e7 0e 10 be 99 65 24 bd
       0.0024258504 0.03577693 -0.14068185 -0.040135954
000080 f0 64 84 3c 1b 09 d8 bd 17 53 34 be 61 e8 01 be
       0.016161412 -0.10548612 -0.17609821 -0.12686302
000090 41 7b 88 3a 39 80 da bd 66 9b 85 bd 80 55 2c bc
       0.0010412709 -0.10668988 -0.065237805 -0.010518432
0000a0 0d e3 1d be b6 7a 3c bd d8 6c 5d bd fd f6 11 bb
       -0.15418644 -0.046015464 -0.05405888 -0.002227246
0000b0 31 9d 32 3d d5 a4 15 bd b2 b4 15 be 20 7e a8 bd
       0.04360694 -0.03653415 -0.14619711 -0.082271814
0000c0 fb 60 01 be 3f d5 7c bd 84 6c 10 bc c1 42 6e bd
       -0.12634651 -0.061726805 -0.008814935 -0.05816913
0000d0 79 0f ad bd 41 4d 0a be be cf a7 3a aa 64 dc bc
       -0.08450217 -0.13506033 0.0012803001 -0.02690347
0000e0 ed 64 9d bd eb 09 4e 3d c2 1b 76 bd 56 8c f9 bd
       -0.07685266 0.050302427 -0.060085066 -0.1218497
0000f0 08 4d fa bc b7 54 0a be da 77 51 3d 8f 51 45 3d
       -0.03055431 -0.13508879 0.05113969 0.048173483
000100 25 2f db bd bf cc a3 bc 26 52 2a 3c 27 f8 99 bc
       -0.107023515 -0.019995091 0.010395562 -0.018795086
000110 7d 77 ba bd a1 cf bf bd 23 65 06 be 7b 8c 6a bd
       -0.09104822 -0.09365774 -0.13124518 -0.05726288
000120 3b 90 c3 bd 36 7d 7a bd 14 3b 07 3d 2f 5b 1e 3e
       -0.09548994 -0.061154567 0.033015326 0.15464471
000130 d7 ee 8b 3a ab 52 a3 bd bc b5 fe bd 79 04 d8 bc
       0.0010676038 -0.07974752 -0.12437007 -0.02636932
000140 06 dd df bd 0a b0 58 3d 32 41 64 be 09 82 4e bd
       -0.10930829 0.05290226 -0.22290495 -0.05041698
000150 2b 1e f1 3c cf 98 47 bd b8 a2 17 bd 71 3e 0d 3c
       0.02943333 -0.048729714 -0.037020415 0.008620844
000160 90 b8 99 bd 18 88 8c bd c8 82 d6 bc 4d b9 1a bd
       -0.07505906 -0.06861895 -0.026185408 -0.037774373
000170 3d 72 06 3d 6b d4 08 bd 55 fe c2 bd 0a ad 03 3d
       0.03282379 -0.033405703 -0.09521166 0.032147445
000180 15 00 2b 3c af 1e da bc 9c 65 14 be a9 98 1e be
       0.010437031 -0.02662596 -0.14491886 -0.15487923
000190 41 b8 e4 bd 72 b3 cd 3b 3b 61 b5 bd 91 c5 70 bd
       -0.11167956 0.006277495 -0.08856436 -0.058782164
0001a0 25 92 01 bd 5c 3b ae 3b 32 79 ec bb 0d fd 26 be
       -0.031633515 0.005317135 -0.007216596 -0.16307469
0001b0 81 bc 9b bd cd 14 c9 bd 31 55 95 bd c0 28 50 bc
       -0.07604314 -0.098184206 -0.072916396 -0.012705028
0001c0 b3 32 a1 bc e3 3a 5e bd d9 41 77 bc 5e 8e 97 bc
       -0.019677496 -0.054255378 -0.015091383 -0.018500503
0001d0 35 90 8d bd dc 4c 95 bc c1 3e fc bd 56 ac 18 be
       -0.06912271 -0.018225126 -0.12316657 -0.14909491
0001e0 43 6f ec bc b6 55 c5 bc 37 32 df bd 18 14 35 bc
       -0.028861647 -0.024088722 -0.108982496 -0.011052154
0001f0 aa 64 24 bb 04 1a 9d bd ad 8c 9c bd c2 86 d6 bd
       -0.0025084415 -0.07670978 -0.07644019 -0.10474922
000200 8e e2 da bc 8f c1 31 3e 4b 69 98 bd 61 59 ad bd
       -0.026719358 0.17358993 -0.07441958 -0.08464313
000210 57 3c da bd d5 c6 48 bd 7d 0a 53 3d 1d 32 41 be
       -0.1065604 -0.049017746 0.051523674 -0.18866773
000220 7b 6a 1f be d9 be 07 be 5c 05 93 bd 10 67 c4 bc
       -0.15567963 -0.13256396 -0.071787566 -0.023974925
000230 a5 15 cc bd b9 e3 49 3c 7a 04 c6 bd 58 17 a5 bd
       -0.09965066 0.01232236 -0.096688226 -0.08061093
000240 32 be 35 bd 5d 44 ee 3c 70 bc 96 bd c8 31 4d 3d
       -0.044370838 0.029085333 -0.0736016 0.050096303
000250 df 16 5d be 1a 98 45 be
       -0.21590756 -0.19296303

bn1.running_mean f4 [150]
000000 0e 3e 82 c0 db 5b 4e 3f 48 39 16 3f 56 9b 89 3f
       -4.070075 0.8060891 0.58681154 1.075053
000010 a2 52 31 3d 40 7c bc 3f 67 5f dc be fe 23 70 bd
       0.043291695 1.4725418 -0.43041536 -0.058628075
000020 2e 34 0e 40 63 b8 84 bd 13 9c 1e be fd 5c 7d 40
       2.2219348 -0.064804815 -0.15489225 3.9588006
000030 66 e5 88 3e 9a 4d 02 3e d1 23 25 c0 49 3c 8b 3f
       0.26737517 0.12724915 -2.580311 1.0877773
000040 85 82 0c bf f6 16 fd 3f 1b 8d 2d 40 88 b1 20 3e
       -0.54886657 1.9772632 2.7117374 0.15692723
000050 83 4f 81 bf 9a c4 df bf 44 90 fd 3d 00 87 92 3f
       -1.010239 -1.7481873 0.12381032 1.1447449
000060 44 6f 37 40 16 8f 29 c0 02 ac ea 3f 69 2a 3d 40
       2.866166 -2.6493583 1.8333743 2.9557135
000070 b9 6b 28 40 2d 26 2b 40 34 14 8f bf d5 25 e1 bd
       2.6315749 2.674205 -1.117804 -0.10993544
000080 b8 5d dd 3f 7a c5 39 be d8 71 10 3f e6 8e 97 3d
       1.7294226 -0.18141738 0.5642371 0.074003026
000090 49 5d 4b 40 fc 7b 8c 3f 1d 8a 0f 3f ee 80 80 3f
       3.1775687 1.0975337 0.5607012 1.0039346
0000a0 82 e1 11 c0 c5 95 ef 3f 97 c0 da bf 94 9a 5e bf
       -2.279389 1.8717581 -1.7090024 -0.8695462
0000b0 47 7b e1 bd 13 51 b3 3e d9 a5 09 40 97 ee ac be
       -0.110098414 0.35022792 2.1507475 -0.3377578
0000c0 9a ec 0f c0 fd 30 60 40 98 2a 3e bf c0 75 1f 40
       -2.248816 3.50299 -0.7428374 2.491562
0000d0 76 92 aa 3e d8 cb 5f bd 3c 4b e5 3f 96 b7 8f 3f
       0.33314866 -0.05463776 1.7913585 1.1227901
0000e0 b1 a4 dd 3e 97 99 78 bf e5 7a 13 40 1e b1 ac 3f
       0.43289712 -0.9710936 2.304376 1.3491552
0000f0 d9 95 a2 c0 48 c5 c0 3e e2 d3 b8 bf 6b c3 85 40
       -5.080792 0.37650514 -1.4439662 4.1801047
000100 ec 98 a7 3e 56 dd 30 c0 f7 89 00 c0 c6 68 15 40
       0.32733858 -2.7635093 -2.0084207 2.3345199
000110 f3 8f 41 c0 e0 4e 85 bf d0 30 e4 3f be 95 b3 bf
       -3.024411 -1.0414696 1.7827396 -1.4030073
000120 53 f2 80 3f 25 17 24 3f bd d0 66 bf 20 b9 46 be
       1.0073951 0.64097816 -0.9016226 -0.19406557
000130 49 bf 6f bf af ec 12 3f 82 30 99 3d aa 22 a5 bf
       -0.93651253 0.573924 0.07479955 -1.2901204
000140 64 2a 8b be e7 d4 94 3f 05 1b 16 bf ce e0 34 3e
       -0.2718078 1.1627473 -0.5863498 0.17663881
000150 f7 7d 61 c0 4f 8f cc 3f 65 d1 a3 bd fd 54 b4 bf
       -3.5233133 1.5981234 -0.07998923 -1.4088436
000160 38 a8 da 3e 10 62 ff bf 47 3d 06 3f 61 1d 7f 3f
       0.42706466 -1.9951801 0.5243725 0.99654204
000170 f0 67 6e 40 30 0a 9a 3f 77 0f 78 c0 3e 4f 5a 40
       3.7250938 1.2034359 -3.875944 3.4110866
000180 fb b5 57 3f 81 4e 4d 3d 1a 2c fe 3f d1 44 41 c0
       0.84262055 0.050123695 1.9857209 -3.0198252
000190 b4 b8 35 3e b4 ef 46 3f ed b5 bf 3d 69 68 74 c0
       0.1774624 0.7770951 0.093608715 -3.8188727
0001a0 49 04 43 3f 47 f7 e8 3f 27 56 07 3e 12 80 84 bf
       0.76178414 1.8200463 0.13216458 -1.0351584
0001b0 9f ec 1c 3f 69 83 ce bf ad c6 a8 3f 2c 4b a2 3e
       0.61298555 -1.6133853 1.3185631 0.31697977
0001c0 ae 5f 03 40 ed 89 72 bf fd d9 6e 3f 96 75 83 3f
       2.0527148 -0.9474171 0.93301374 1.0270259
0001d0 76 a3 0b 3f e9 31 31 c0 2d 5e f1 3e 98 dc 32 3f
       0.54546297 -2.7686713 0.47142163 0.6986785
0001e0 00 8d 89 3f 96 8e d4 be a6 3c 9b 3f 8e aa 98 40
       1.0746155 -0.41515034 1.2127883 4.7708197
0001f0 76 13 9d 3f 2d eb 65 bf b9 90 fa 3f a3 df 76 3e
       1.2271564 -0.89811975 1.9575416 0.24108748
000200 96 7e e4 c0 59 12 14 3f 34 e7 fe bf 59 c1 82 3f
       -7.1404524 0.57840496 -1.9914308 1.0215255
000210 a3 3e 03 3f c3 a3 72 3f 86 10 a4 40 0f 27 05 3e
       0.5126745 0.9478113 5.127017 0.13003181
000220 5c ef 0c c0 50 37 2d 3f 8b fa fa 3f e5 ed 07 bd
       -2.2021093 0.67662525 1.960771 -0.03318586
000230 fe 83 81 3f 69 6e 3a 3e bb 94 11 c0 72 bd e4 3f
       1.0118406 0.1820618 -2.2747028 1.7870314
000240 6b 8f e7 bf b7 f1 3b 3f 42 59 1f 40 f0 fc 8f 40
       -1.8090643 0.734157 2.4898229 4.499626
000250 92 ab 92 bf 43 45 4c c0
       -1.1458609 -3.1917274

bn1.running_var f4 [150]
000000 12 de 93 41 27 7d 2e 42 8d 1d c9 3e e4 b5 1b 40
       18.483433 43.62222 0.39280358 2.4329767
000010 27 e7 a4 41 21 3a 21 41 b7 82 60 42 44 04 db 3e
       20.612867 10.076692 56.12765 0.42776692
000020 b8 d4 0d 40 91 10 09 42 fe cd d1 3f d8 96 8a 40
       2.2161083 34.26618 1.6390989 4.3309135
000030 f4 e6 83 3e df b2 50 41 b5 72 c7 40 f5 e1 a3 40
       0.2576214 13.04367 6.2327523 5.1213326
000040 4f 1a 54 42 4a f9 a5 41 10 7c fd 41 f7 55 40 41
       53.025692 20.746723 31.685577 12.0209875
000050 cd a4 b4 41 50 1d 64 42 ec c5 8c 42 57 0d d4 40
       22.58047 57.028625 70.386566 6.6266284
000060 8a 3e 2d 40 3b 24 7e 3f 58 3b 9d 41 6b 6a a0 40
       2.706942 0.99274033 19.653976 5.0129905
000070 62 19 f3 40 7c d0 9b 42 24 48 4d 42 a0 29 97 3e
       7.5968485 77.907196 51.32045 0.29523945
000080 2d ce 89 40 4c 6d 16 42 5b 68 de 42 66 85 70 3e
       4.306418 37.606735 111.20382 0.23488387
000090 34 27 df 40 c1 c8 ce 41 a1 d1 f2 40 d9 39 b5 41
       6.9735355 25.848024 7.5880895 22.653246
0000a0 4b 70 f1 41 df e8 84 3f 1a 76 10 40 39 d9 11 42
       30.17983 1.0383567 2.2572083 36.46213
0000b0 30 7f 38 41 64 c3 ce 41 79 a5 00 42 bd d8 b1 40
       11.531052 25.845406 32.161594 5.5577073
0000c0 f8 39 07 42 94 69 7c 42 31 91 29 40 34 73 2f 41
       33.80661 63.103104 2.6494868 10.965626
0000d0 5e 4a 29 41 2c c6 0a 40 c3 95 b5 41 ee e5 35 40
       10.580656 2.1683455 22.698126 2.8421588
0000e0 44 c9 69 41 46 10 6e 41 0b 6e c2 40 33 ad 84 42
       14.611637 14.878973 6.075933 66.33828
0000f0 66 cc 52 41 43 83 63 41 14 47 8c 41 29 d0 53 40
       13.174902 14.219546 17.534706 3.30958
000100 c0 86 1e 40 a0 67 23 41 71 68 58 42 86 5c 8c 40
       2.4769745 10.212799 54.101994 4.3862944
000110 13 36 18 42 3f dd 89 41 43 fb fb 3f b4 25 63 41
       38.052807 17.23303 1.9686054 14.196705
000120 44 bf 02 40 f6 44 93 3f 16 1f 10 40 49 41 6c 3f
       2.042924 1.150542 2.2518973 0.9228712
000130 79 4b e3 3f c9 32 1e 41 8a 0e 74 40 12 ee a9 42
       1.7757407 9.887399 3.8133874 84.96498
000140 4f 24 55 3f a4 7b 46 40 5b d9 3a 42 b9 fb 1a 41
       0.8325853 3.1012964 46.71226 9.686456
000150 28 6e 7f 41 a2 69 a4 41 4c 2b 93 3e 28 e3 35 42
       15.964394 20.551579 0.2874397 45.471832
000160 8c a9 bd 3e 33 36 4f 41 95 27 f5 41 1b d0 5c 40
       0.37043417 12.950732 30.644327 3.4502017
000170 64 88 57 42 29 7e e3 40 2b ac 83 40 e8 0b 0d 42
       53.883194 7.1091504 4.1147666 35.261627
000180 72 ef 06 42 3e 09 07 41 54 1a cd 41 c5 18 a8 41
       33.733833 8.439756 25.637856 21.012094
000190 db ca 65 41 1a b0 8c 41 0d d8 02 42 8b 2d e3 40
       14.362025 17.585987 32.710987 7.0993094
0001a0 a2 a8 93 41 78 99 01 42 62 f1 09 3f 69 71 f6 41
       18.45734 32.39987 0.53883946 30.805376
0001b0 21 d8 32 40 3a d1 81 40 d4 68 1f 41 02 1b 62 41
       2.7944415 4.0567904 9.963093 14.131594
0001c0 f8 ae 89 41 13 54 83 41 04 18 38 40 c3 b6 d2 40
       17.210434 16.416052 2.8764658 6.58481
0001d0 e1 8a 1d 3f e8 29 9c 40 c2 3e 42 40 bb f6 de 40
       0.6154004 4.8801155 3.0350804 6.9676185
0001e0 9c 6b a6 41 5f 30 fc 40 a6 c7 8f 41 12 90 19 42
       20.802544 7.8809047 17.972485 38.390694
0001f0 95 99 a1 41 1e 7d dd 40 f0 d9 8a 40 21 b5 bb 41
       20.199991 6.921523 4.3391037 23.463442
000200 f9 13 08 42 cd ac 5c 3f 0d 54 98 41 aa 17 21 41
       34.019505 0.86201173 19.04104 10.068277
000210 04 02 73 41 63 9f 2a 41 da fc a1 40 ca 89 a9 40
       15.187992 10.663913 5.0621157 5.29807
000220 b4 2c a9 40 51 74 f6 41 8f c6 ad 40 a9 2c 64 41
       5.286707 30.806795 5.430488 14.260903
000230 ef 15 e2 41 08 44 bf 41 73 bb 9c 41 0e 6f 06 40
       28.26071 23.908218 19.591528 2.1005282
000240 bc dd 66 41 12 ac 97 3e b3 84 30 41 d1 75 8e 40
       14.429134 0.29623467 11.032397 4.451882
000250 bb 8e aa 41 16 5d 88 41
       21.319693 17.045452

fc2.weight f4 [150, 152]
000000 45 bc 01 3e c9 0b 04 be 3a 11 c8 bd 89 a5 e9 bd
       0.12669475 -0.1289512 -0.09768911 -0.114085265
000010 de 9a 20 3d 3f c5 13 be 3e 64 01 3e f0 68 09 3e
       0.039210193 -0.14430712 0.12635896 0.13418937
000020 3f 01 03 be c7 a2 90 3d d0 5e b6 3d a4 38 09 3d
       -0.12793444 0.07062297 0.08904803 0.033501282
000030 e3 1f 0b bc 76 72 03 bd 23 fd c1 3d 85 f5 ca 3d
       -0.008491489 -0.03209158 0.0947211 0.099101104
000040 30 c1 ee bc 47 1f b2 bd fd 83 6f bd 20 94 46 3d
       -0.029144853 -0.08697372 -0.058475483 0.048481107
000050 9b ef 00 3e 8b 59 e7 3d e4 44 cf 3d fd 8e 80 bc
       0.12591402 0.11296376 0.10120562 -0.015693182
000060 19 bb 29 3e 4f 31 1f 3d 22 a7 af bd 4f bc 8c bb
       0.16575278 0.038865384 -0.085768 -0.004294909
000070 70 bd cb bd bb 23 06 be f1 ab 89 3d 4c 19 91 3d
       -0.09948242 -0.13099568 0.06722248 0.07084903
000080 91 31 3b 3d 0a 46 3e bd d4 6c 86 bd e0 ea cc bc
       0.045701567 -0.046453513 -0.06563726 -0.02501434
000090 dc 0b 9f bd d0 ad e0 3d eb e7 57 bd ef 46 2a be
       -0.07765934 0.10970652 -0.05271141 -0.16628622
0000a0 57 75 d1 bd 1a ad 55 3c 83 97 c6 3d 9f 3c 88 bd
       -0.10227459 0.013041759 0.09696867 -0.066521876
0000b0 52 8f 88 bd 9d 60 04 3e 3f 52 d1 bd 84 2b 44 3d
       -0.06667961 0.1292748 -0.10220765 0.047893062
0000c0 db 43 33 3d 35 ff ae bc 7e e6 11 bb 1a de 8b 3d
       0.043765884 -0.021361927 -0.0022262628 0.06829472
0000d0 cf 86 31 3d cf bf 9f 3d 19 4e 1e 3d cc 2e 8b bc
       0.043341454 0.078002565 0.0386487 -0.016990088
0000e0 c4 37 9c bd 6b 33 3c bd 7f 18 55 3d 8f aa 1c bd
       -0.07627824 -0.045947473 0.052025314 -0.038248595
0000f0 ad 12 39 bd 11 a4 6b 3d ba 82 a1 3d 40 81 ba bd
       -0.045183826 0.057529513 0.07886262 -0.09106684
000100 a6 ed 8e bd d1 6c 21 3d a3 6b 79 bd b8 f5 b5 bd
       -0.069789216 0.039410416 -0.060893666 -0.08884758
000110 9c 5d 04 be a9 47 0c 3e 76 e6 e9 3a a0 d3 28 3d
       -0.12926334 0.13699211 0.0017845172 0.041217446
000120 52 58 18 3e 97 12 2d 3c a5 14 78 3c c4 88 ce bd
       0.14877442 0.010563514 0.015141641 -0.1008468
000130 51 75 4d 3d e6 92 0c be 43 03 83 bd 09 69 3d be
       0.05016071 -0.13727912 -0.063971065 -0.18497099
000140 49 10 00 3e e6 57 e8 bd b6 fa fa 3d ed 15 ea bc
       0.12506212 -0.1134489 0.122548506 -0.028574908
000150 a9 73 5e 3d 3f ae d2 3d 37 96 fc bd 3a a7 2b bd
       0.05430952 0.10287141 -0.12333339 -0.041907527
000160 a3 fd d1 3d b0 ad 5d 3d f3 dd 91 bd 87 9c bf bc
       0.102534555 0.05412072 -0.071224116 -0.023390068
000170 30 75 b6 3d 71 2d 32 3e d6 10 1d 3d 7f 62 ae 3b
       0.089090705 0.17400147 0.038346134 0.0053218002
000180 d9 e2 28 bd 8d 47 8d bd de be ba bd 68 a6 a0 3d
       -0.041231964 -0.06898413 -0.09118436 0.078442395
000190 2d b5 73 bd 91 c0 9b 3d d9 d2 2e 3d 7c 8a f9 3d
       -0.059498955 0.076050885 0.04268155 0.12184617
0001a0 06 6c fe bc 21 16 6b bd c1 d3 c6 3d 6d f7 8a 3d
       -0.031057369 -0.05739415 0.097083576 0.06785474
0001b0 8a a9 f3 bd ac 26 3f bd 70 7d dc 3c 8f 50 7d bd
       -0.118975714 -0.04666774 0.026915282 -0.061844405
0001c0 a0 04 26 bb 18 05 e1 bd 41 09 d4 bc 10 0c 7f bd
       -0.0025332347 -0.109873 -0.025883319 -0.062267363
0001d0 ff 0d cc bd bb ef bd bd 0b 46 79 3d ba 0a 52 bc
       -0.09963607 -0.092742406 0.060857814 -0.01281994
0001e0 b6 04 b8 3d b7 13 8d 3d ad 79 cb 3b 90 8f de 3d
       0.089852735 0.06888526 0.0062095732 0.10867226
0001f0 4e 86 ea 3d 6b 81 c7 bd 49 21 8a bd 06 46 87 3d
       0.11451398 -0.097414814 -0.0674463 0.06605153
000200 27 1d 9f 3c b3 5d b7 bd 92 34 d9 bd 9e 00 ce bd
       0.01942308 -0.089534186 -0.1060573 -0.100587115
000210 fe c5 48 bd 3b 62 f5 3d 3e 43 c8 bc e1 f0 02 bd
       -0.049016945 0.119816266 -0.024446126 -0.031968
000220 8d e6 08 3d 10 03 d6 bd de fd a4 bd 20 6a 0d be
       0.033422995 -0.10449803 -0.08056234 -0.13810015
000230 39 0a 19 3e 31 28 f2 3b 44 47 09 3e 62 14 82 3d
       0.14945306 0.007390045 0.13406092 0.06351544
000240 91 4f ed 3d 6f e1 cb 3c bc 6e 76 bc 90 55 5d bc
       0.11587442 0.024887769 -0.01504105 -0.013509169
000250 27 6a a3 bc e9 1c 9f 3d 3b 2d 91 3d 90 7e 7d 3d
       -0.019948078 0.07769186 0.07088705 0.061888278
000260 40 32 1f be 82 64 04 3d 70 79 39 be 79 76 02 3d
       -0.15546513 0.032322414 -0.18112731 0.031851266
000270 4f ed f6 bd 2e f4 87 bd 26 0d b2 3d 3a c1 05 bc
       -0.12056982 -0.066383705 0.08693914 -0.008163745
000280 ac 26 81 3d d3 13 98 bd 12 95 0f bd e5 f3 93 3d
       0.06306204 -0.07425656 -0.035054274 0.072242536
000290 8f 60 aa 3b 36 12 cd 3d e9 1e b5 3d d3 07 b3 3d
       0.005199499 0.10013239 0.08843786 0.08741727
0002a0 27 02 02 bc 0d 19 02 be c6 7f be 3d 46 b5 00 be
       -0.0079350835 -0.12704869 0.093017146 -0.1256915
0002b0 94 d5 86 bd 32 e7 b3 bb 44 66 3a 3d d8 27 19 bc
       -0.065837055 -0.005490207 0.045507684 -0.009347878
0002c0 96 7c c0 bd d3 16 ed bd 19 d1 8c bd 63 b4 bb bb
       -0.09398763 -0.11576619 -0.0687582 -0.005728291
0002d0 ff 85 12 be 7d 0a 04 bb 2b 5c 2a 3d f4 83 9a bd
       -0.14308928 -0.0020147853 0.041591804 -0.07544699
0002e0 de 40 81 3c 17 b1 ab bb 6d a5 24 3d fb d9 d3 ba
       0.015778001 -0.0052396166 0.040196825 -0.0016162986
0002f0 cd e0 21 be 4f d4 a7 3d cd c7 70 bd cc 7e 30 3e
       -0.15808411 0.081947915 -0.058784295 0.17235869
000300 f1 8b 6c bd c5 f9 fc bd 5e f5 93 bd 66 61 47 3d
       -0.057750646 -0.12352327 -0.072245345 0.04867687
000310 fd 42 39 bc 3f 49 94 bc 4a e7 e2 3d f1 56 3c bd
       -0.011307475 -0.018101333 0.11079271 -0.04598135
000320 1f 6d 97 3d aa 04 b3 bd 4d a8 c3 3d e2 33 2c 3b
       0.0739386 -0.08741124 0.09553585 0.0026276042
000330 26 e5 43 be 1a ed 3d bd 9b 28 83 3d c9 1d 9d bd
       -0.19130382 -0.046368696 0.06404229 -0.07671697
000340 1e 7a d0 bd 9b 75 54 bc 42 c1 bc bd a8 cc 6e 3d
       -0.10179542 -0.012967492 -0.092165485 0.058300644
000350 f3 73 ce 3d 58 4a 27 bd 63 b9 11 bd d0 ab d8 bd
       0.10080709 -0.040842384 -0.03557719 -0.10579646
000360 ca 8b 03 be 11 a4 8f 3d 39 18 90 bd 51 42 a9 3d
       -0.12846294 0.07013715 -0.0703587 0.08264602
000370 4d 73 54 3d a8 57 1e bb 6c 54 0f 3d eb f8 eb bd
       0.051867772 -0.0024161134 0.03499262 -0.11522087
000380 3d 05 8d bc 74 e9 ea 3d 7e a4 8a 3d 84 e8 89 3d
       -0.017214412 0.11470309 0.06769656 0.06733802
000390 0e 65 a8 3d 28 c3 d7 bd 97 63 8c 3c 7a 76 76 bd
       0.082224 -0.1053527 0.017137332 -0.06017158
0003a0 09 95 2e be 28 85 63 3d a4 d9 8e bd b9 b4 4c 3d
       -0.1704904 0.05554691 -0.069751054 0.049977038
0003b0 80 b7 5a 3e 4a 77 13 bd 29 93 a1 be 6d 19 e0 bc
       0.21359062 -0.036002435 -0.31557587 -0.027355874
0003c0 bd a2 5a 3c 98 f8 dd 3c bd a6 3c 3d 13 3e d8 bb
       0.013344464 0.027096078 0.04605745 -0.0065991967
0003d0 42 2c 6d bd 34 70 5e 3c 19 bb 99 bd ef 16 ca bd
       -0.057903536 0.013576556 -0.07506389 -0.098676555
0003e0 35 1e f7 3c 5a f9 99 3d a5 35 01 3e 83 86 a2 3d
       0.030165771 0.07518263 0.1261812 0.07935812
0003f0 d5 45 87 3d 06 c3 7e bd 94 6a f1 3d 4c a6 df 3c
       0.06605116 -0.062197708 0.11787906 0.027300976

fc2.bias f4 [150]
000000 46 3e 16 3d 1b f8 f3 3d 8d ae b0 3d 75 df 0c 3e
       0.036680482 0.11912557 0.08627043 0.13757117
000010 9d 04 ce 3d e4 51 65 3d 56 43 4d bd 08 f4 cc 3c
       0.10059474 0.0559863 -0.050113045 0.025018707
000020 cf 56 83 3d 9f 2d 14 3e fe 23 ce 3d 96 19 10 3e
       0.06413042 0.14470528 0.10065459 0.1407226
000030 57 1a f5 3d 64 1f 8b 3d a5 80 97 3d 7b cf 0f 3e
       0.119679146 0.06793097 0.07397584 0.14043991
000040 97 e6 52 3d 2c e6 ac 3d 80 43 78 3d 3f 98 0e 3e
       0.05148944 0.08442339 0.060611248 0.13925265
000050 e0 21 73 3d 31 fe e0 3d 87 eb 18 3e f0 b5 11 3e
       0.059358478 0.10985983 0.14933597 0.1422956
000060 9f 62 c9 3d 29 9a a0 3d 38 61 e8 3d 06 07 e0 3d
       0.098332636 0.07841904 0.11346668 0.109388396
000070 93 17 21 3e a3 f8 0e 3e 2a fe 15 3e dc e0 10 3e
       0.15731649 0.13962035 0.14647737 0.14148277
000080 8c da e7 3d f0 7f cd 3c 67 cf db 3d e3 8b 04 3e
       0.113209814 0.02508542 0.10732918 0.12943988
000090 f5 19 11 3e 72 07 ad 3d c7 cf 72 3d 49 e6 1e 3e
       0.14170058 0.08448686 0.059280183 0.15517534
0000a0 fc 0b db 3d 50 50 8e 3d e2 d2 48 3d c7 2d e4 3d
       0.10695645 0.06948912 0.04902924 0.11141544
0000b0 52 5a 60 3d 53 99 0a 3e fc 7e de 3d af 41 90 3d
       0.054773636 0.13535051 0.10864064 0.07043778
0000c0 eb 2f 24 3e b0 85 02 3e b0 c1 35 3d 5f e8 18 3e
       0.16033904 0.1274631 0.044374168 0.14932393
0000d0 d3 22 79 3d 96 2e 84 3d 22 1d c8 3d 92 46 0a 3e
       0.060824227 0.06454198 0.09771182 0.13503483
0000e0 8a 2e a8 3d b6 25 11 3e 63 56 06 3e 48 44 ca 3d
       0.082120016 0.14174542 0.13118891 0.09876305
0000f0 a5 b9 19 3e 3e 01 06 3e a8 cb ea 3d f6 87 83 3d
       0.15012224 0.13086411 0.114646256 0.06422417
000100 f1 77 0a 3e 54 1f 61 3d ca 3f 12 3e 88 a0 36 bd
       0.13522317 0.054961517 0.14282146 -0.04458669
000110 dd 7f 1e 3e 77 06 9e 3d a9 82 10 3e af 73 8e 3d
       0.15478463 0.07716077 0.14112343 0.06955659
000120 42 26 07 3e 47 47 ac bc 69 64 74 3d 50 09 04 3e
       0.13198188 -0.021030081 0.05966607 0.12894177
000130 34 ee ad 3d 25 39 0b 3e 86 63 71 3d f2 34 8b 3d
       0.08492699 0.13596018 0.058932804 0.06797208
000140 bd 05 f9 3d b6 8e 07 3e 64 a3 9f 3d 26 06 99 3d
       0.121592976 0.13238034 0.07794836 0.07471876
000150 48 4f 20 3e 66 55 ed 3d 69 e7 55 3d 26 fa 8f 3d
       0.15655243 0.11588554 0.052222643 0.07030134
000160 da fa 9b 3d 1e c0 04 3e b9 d7 01 3e 8b 3c 7e 3d
       0.076162055 0.12963912 0.12679948 0.062069457
000170 05 8f 8b 3d 29 e9 d4 3b cd 37 04 3e 5c 7e 15 3e
       0.06814388 0.0064975214 0.12911911 0.14598984
000180 86 04 a5 3d 31 f3 31 3d bd 83 14 3e 95 db 95 3d
       0.080575034 0.043444816 0.14503379 0.073172726
000190 31 9a 0a 3e cc d2 15 3e f4 a2 16 3e df 8a da 3c
       0.13535382 0.14631194 0.14710599 0.026677547
0001a0 44 a2 fe 3d 19 2b bd 3d 0b f3 0e 3e 9a e5 1e 3e
       0.124332935 0.09236736 0.13959901 0.15517274
0001b0 c7 46 f7 3d 36 c1 2b 3d a0 fc e9 3d 9d bf ba 3d
       0.120740466 0.041932307 0.114251375 0.091185786
0001c0 3f 65 1f 3e 83 33 60 3d f4 7c b5 3d 14 2c e8 3d
       0.15565966 0.054736625 0.088617235 0.11336532
0001d0 11 d7 7a 3d f0 ef 39 3d 1d 66 09 3e 89 29 2a bd
       0.06124026 0.045394838 0.1341786 -0.041543517
0001e0 ea d3 83 3d 96 8a 68 3d 64 79 4f 3d de 10 3b 3d
       0.06436904 0.05677279 0.050652876 0.045670383
0001f0 ee 9f 61 3d e2 a3 dd 3d f8 5a 11 3e 57 c6 32 3d
       0.05508416 0.10822274 0.14194858 0.043646183
000200 57 b6 79 3d 7a 4d 2b 3e 01 f8 e8 3d 89 3b c8 3d
       0.06096491 0.16728774 0.11375428 0.097769804
000210 fc 9d 29 3e 72 9b ea 3d dc b1 a6 3d 00 95 49 3d
       0.16564173 0.1145543 0.08139393 0.049214363
000220 71 6e 12 3e 05 ee 97 3d 72 bd 9c 3d fa 32 13 3d
       0.14299943 0.074184455 0.07653321 0.035937287
000230 a5 8d cf 3c e0 71 bb 3d a6 50 a7 3d a6 20 3f 3d
       0.025336096 0.09152579 0.08169679 0.046661995
000240 6b b8 da 3d 46 49 19 3e 59 11 91 3d 1e 3b 64 bd
       0.10679706 0.14969358 0.07083387 -0.05572044
000250 37 1a 08 3e f3 ea 7e 3d
       0.1329125 0.062235784

fc3.weight f4 [1, 150]
000000 64 86 cd bc 2e 38 52 3d ac b2 6f bd e9 d8 09 3d
       -0.025088497 0.05132311 -0.058520004 0.033654127
000010 c1 78 01 be d3 22 da bd 0d 09 f2 bd 11 12 49 bd
       -0.1264372 -0.106511734 -0.118181325 -0.049089495
000020 10 47 ca bd 35 26 03 3d 18 b1 29 3d 88 b8 fa 3c
       -0.09876835 0.03201886 0.041428655 0.03060557
000030 d0 d1 91 3d ac 06 b8 bd ca 72 c6 bd c6 87 1c 3e
       0.07120097 -0.089856476 -0.09689863 0.15286168
000040 ec 2e a5 bd ed 91 46 bd bb 95 92 be 51 d6 02 3e
       -0.0806559 -0.04847901 -0.2862986 0.12777068
000050 d6 84 ee bc 39 75 f6 3d 54 65 03 3d e0 0e fa 3d
       -0.029116075 0.12034077 0.032079056 0.122098684
000060 9f 4d b2 3d bb 43 20 3d 29 1f a1 3d 8c 8d d7 bd
       0.08706211 0.039127093 0.078672715 -0.10525045
000070 75 c3 08 3e 5e 27 18 3d cf 6c ea 3d 03 0c 89 3d
       0.13355811 0.03714692 0.11446535 0.06691744
000080 f9 eb bb 3d d3 9c f7 bd cf 15 0f 3d 28 9a 40 bd
       0.091758676 -0.12090459 0.034932908 -0.047022015
000090 d1 65 81 3d c8 68 0c bd 09 62 db 3c 09 00 05 3e
       0.06318248 -0.034279615 0.026780145 0.12988295
0000a0 31 86 dd 3d bf 70 9e bd 53 e4 05 bd 9d 79 50 bd
       0.108166106 -0.07736348 -0.03268845 -0.05089723
0000b0 5b 93 40 bd ae f4 91 3d 9c a9 07 3d e4 5d ae bc
       -0.04701553 0.07126747 0.033120736 -0.021285005
0000c0 69 65 00 3d 54 db 51 3d 3f 66 e0 bd 7c b6 85 3d
       0.031346712 0.05123456 -0.10957002 0.06528947
0000d0 23 15 07 be 15 e8 f1 bd c9 17 03 be 29 56 73 3d
       -0.13191657 -0.11811844 -0.12802042 0.05940834
0000e0 c2 84 92 bc a9 c0 4a 3d 85 b7 e8 3d 45 c0 a4 3d
       -0.01788557 0.04950014 0.113631286 0.08044485
0000f0 83 e6 a0 bd ce 0c 09 3e 61 24 b7 3d 08 10 4c bd
       -0.078564666 0.13383791 0.089424856 -0.049819976
000100 c9 e8 a9 3d f0 a0 5a bd 2d df ef 3d d1 aa b1 be
       0.08296353 -0.05337614 0.11712489 -0.34700635
000110 7f ca 0d 3d 23 40 2d bd 5a d6 56 3d ad 80 e7 bc
       0.034616943 -0.042297494 0.052450515 -0.0282596
000120 64 f8 2c 3e 76 7a 15 be ed 6d 99 bd 1a 3e 55 3d
       0.16891629 -0.14597496 -0.0749167 0.052061178
000130 b7 f5 4a 3e 95 8d a1 3d 48 49 3b bd 4b bf f3 bd
       0.19820295 0.07888333 -0.045724183 -0.119017206
000140 f9 49 aa 3d 3a 88 99 3d 32 2b 1c bd e8 5e e4 bd
       0.083148904 0.07496686 -0.03812713 -0.111509144
000150 36 db 6d 3d 3e 36 b7 3d 44 cc a9 bd 6b 09 bf bd
       0.058070384 0.08945893 -0.08290914 -0.09327968
000160 44 b2 e9 bc 17 e8 18 3d 4f 13 2e 3d 5b 88 84 bd
       -0.028527386 0.037330713 0.042498883 -0.0647132
000170 82 93 b9 bd 0a 3d c0 bc 98 7b a9 3d 07 2e 3f bd
       -0.09061338 -0.023466606 0.08275527 -0.046674754
000180 7c 6e b2 bd 59 aa 1a be d4 fa 5c 3d 3f 18 ed bd
       -0.087124795 -0.15104045 0.053950146 -0.1157689
000190 e8 60 e0 3d 7a 87 73 3c 0d 58 39 3d c9 94 55 bd
       0.109559834 0.014863843 0.045249987 -0.052143846
0001a0 6b 21 56 3d d7 39 ad bd 70 0f ad 3d 4e 40 2d 3d
       0.052277964 -0.08458298 0.0845021 0.042297654
0001b0 07 d5 3c 3d dc 99 01 be 1e 80 9d 3d 21 92 f8 bd
       0.046101596 -0.12656349 0.07690452 -0.12137247
0001c0 56 2f 05 3d d1 13 8c bd e4 54 82 bd 0b 1f 91 3d
       0.032515846 -0.06839717 -0.06363848 0.07085999
0001d0 16 fa 81 bd 5d ed 68 bd 2a b1 a7 3d d1 f7 de bd
       -0.06346528 -0.056866992 0.08188088 -0.10887111
0001e0 02 bc fd bd 95 dc 06 be 38 1a d0 bd 4b 9e 92 be
       -0.12389375 -0.13170083 -0.10161251 -0.28636393
0001f0 a3 63 b6 bd 52 8a fe bc 52 df a6 3d 9c 44 1d be
       -0.08905723 -0.031071816 0.08148064 -0.15358204
000200 38 e7 c3 3d f2 56 cc 3d 8f ac 8f 3d 18 29 db bd
       0.09565586 0.09977521 0.07015335 -0.107011974
000210 61 ba b0 3d 34 2a 38 3d e7 0c 21 bd 9c df 98 be
       0.08629299 0.044962123 -0.039318945 -0.298581
000220 8d 2e 0a 3e 4f c4 48 bd b3 21 12 bd 83 f9 1f be
       0.1349432 -0.04901534 -0.03567667 -0.15622525
000230 e6 22 a5 bd 39 c9 c4 3d ac d2 83 3d 0e f6 ac bd
       -0.08063297 0.09608693 0.06436667 -0.08445369
000240 3f c2 3a 3d 3e 12 d2 3d 73 81 14 be 23 0c ba be
       0.045595404 0.10257386 -0.14502506 -0.36337385
000250 e3 f1 d5 3d e8 df 5b bd
       0.10446527 -0.05368033
